deploy/pre_train/bhr8/policy_lstm_1_bhr8_Apr06-21-30.pt (torch, 145745 bytes, 10 tensors)

hidden_state f4 [1, 1, 64]
0.0 0.0 0.0 0.0 0.0 0.0 0.0 0.0
0.0 0.0 0.0 0.0 0.0 0.0 0.0 0.0
0.0 0.0 0.0 0.0 0.0 0.0 0.0 0.0
0.0 0.0 0.0 0.0 0.0 0.0 0.0 0.0
0.0 0.0 0.0 0.0 0.0 0.0 0.0 0.0
0.0 0.0 0.0 0.0 0.0 0.0 0.0 0.0
0.0 0.0 0.0 0.0 0.0 0.0 0.0 0.0
0.0 0.0 0.0 0.0 0.0 0.0 0.0 0.0
00000000: 0000 0000 0000 0000 0000 0000 0000 0000
00000010: 0000 0000 0000 0000 0000 0000 0000 0000
00000020: 0000 0000 0000 0000 0000 0000 0000 0000
00000030: 0000 0000 0000 0000 0000 0000 0000 0000
00000040: 0000 0000 0000 0000 0000 0000 0000 0000
00000050: 0000 0000 0000 0000 0000 0000 0000 0000
00000060: 0000 0000 0000 0000 0000 0000 0000 0000
00000070: 0000 0000 0000 0000 0000 0000 0000 0000
00000080: 0000 0000 0000 0000 0000 0000 0000 0000
00000090: 0000 0000 0000 0000 0000 0000 0000 0000
000000a0: 0000 0000 0000 0000 0000 0000 0000 0000
000000b0: 0000 0000 0000 0000 0000 0000 0000 0000
000000c0: 0000 0000 0000 0000 0000 0000 0000 0000
000000d0: 0000 0000 0000 0000 0000 0000 0000 0000
000000e0: 0000 0000 0000 0000 0000 0000 0000 0000
000000f0: 0000 0000 0000 0000 0000 0000 0000 0000

cell_state f4 [1, 1, 64]
0.0 0.0 0.0 0.0 0.0 0.0 0.0 0.0
0.0 0.0 0.0 0.0 0.0 0.0 0.0 0.0
0.0 0.0 0.0 0.0 0.0 0.0 0.0 0.0
0.0 0.0 0.0 0.0 0.0 0.0 0.0 0.0
0.0 0.0 0.0 0.0 0.0 0.0 0.0 0.0
0.0 0.0 0.0 0.0 0.0 0.0 0.0 0.0
0.0 0.0 0.0 0.0 0.0 0.0 0.0 0.0
0.0 0.0 0.0 0.0 0.0 0.0 0.0 0.0
00000000: 0000 0000 0000 0000 0000 0000 0000 0000
00000010: 0000 0000 0000 0000 0000 0000 0000 0000
00000020: 0000 0000 0000 0000 0000 0000 0000 0000
00000030: 0000 0000 0000 0000 0000 0000 0000 0000
00000040: 0000 0000 0000 0000 0000 0000 0000 0000
00000050: 0000 0000 0000 0000 0000 0000 0000 0000
00000060: 0000 0000 0000 0000 0000 0000 0000 0000
00000070: 0000 0000 0000 0000 0000 0000 0000 0000
00000080: 0000 0000 0000 0000 0000 0000 0000 0000
00000090: 0000 0000 0000 0000 0000 0000 0000 0000
000000a0: 0000 0000 0000 0000 0000 0000 0000 0000
000000b0: 0000 0000 0000 0000 0000 0000 0000 0000
000000c0: 0000 0000 0000 0000 0000 0000 0000 0000
000000d0: 0000 0000 0000 0000 0000 0000 0000 0000
000000e0: 0000 0000 0000 0000 0000 0000 0000 0000
000000f0: 0000 0000 0000 0000 0000 0000 0000 0000

weight f4 [32, 64]
0.0091217 0.15125747 -0.10604847 0.7811978 0.13819377 0.4871893 -0.21208446 0.21306542
0.07460532 0.08183506 0.2954782 0.23920579 0.008556838 0.33743945 -0.080088824 -0.12007515
-0.0052273697 -0.16001537 -0.03018057 -0.37664986 0.08971694 0.03998853 -0.072370306 -0.15493117
0.09044779 -0.68643785 -0.40347445 0.44771183 -0.18848881 0.09676129 -0.51084816 -0.062069878
0.23216234 -0.0623503 0.1656107 -0.22682913 -0.2124363 -0.19343957 -0.15775381 0.3899065
0.12299118 0.14955555 0.13168359 -0.19710934 -0.17430511 -0.19107978 -0.01920294 -0.28522748
0.3140607 -0.16704853 0.01627792 -0.47936305 0.07658035 0.32699725 -0.4492519 0.18722858
-0.11890003 -0.11567978 -0.6547644 -0.7584754 -0.46821672 0.05663846 -0.11794543 -0.041611366
-0.26478678 0.42202982 -0.80949587 0.5434643 -0.023124771 0.15278287 -0.37701386 0.39771044
0.17002185 0.405488 -0.58819586 -0.5161048 -0.53898907 0.055466246 -0.13808231 -0.18337476
0.031623743 -0.7656159 -0.29634225 0.019584812 -0.32508564 0.56738824 0.5178805 -0.23074448
0.18408065 -0.1747866 0.10646251 -0.42415944 -0.004178064 0.2680749 -0.21070482 -0.32072058
0.60913265 0.2020186 -0.2372461 0.21679135 -0.66700244 -0.06614386 0.15401386 -0.28237832
0.39320096 0.50360876 0.32568258 0.20367216 0.06870056 -0.17513151 0.1292705 0.40161672
-0.041799687 0.17922375 0.07971545 0.0859898 0.14341581 0.14312457 -0.28501263 -0.088097565
0.4192063 -0.26709953 0.3347936 0.13581982 -0.17107451 0.43058378 0.38129756 0.109648444
-0.06428538 -0.18070735 0.72092825 0.21385531 -0.50913996 -0.036679633 0.056243144 0.4552183
-0.36256212 0.39867762 -0.2821864 0.27065763 -0.19052692 -0.23716135 -0.017310062 -0.06486747
-0.31257248 -0.35490015 -0.17732643 0.5463179 -0.018459983 -0.36966148 0.28434765 0.11136846
0.061757464 -0.370297 -0.7160485 0.3147942 -0.38392797 -0.43055823 0.38675463 0.01888801
0.09841664 -0.07382665 0.11559011 0.29795372 -0.29749465 0.065677926 -0.121916056 -0.01072972
0.09355642 -0.13692608 0.25970545 -0.083226204 -0.08428797 0.020289142 -0.21939829 0.10367845
0.11537601 -0.5634927 0.03765656 0.097627096 0.03923829 -0.07929728 -0.30045667 -0.11289954
0.013989406 0.36691186 0.27960345 -0.5310559 -0.44519493 0.16715251 -0.17605719 -0.29338798
0.47014672 -0.11471724 0.2924337 -0.023411484 -0.6656392 0.3280595 -0.05970573 0.5787278
0.39086747 -0.4277809 0.85169554 -0.03536775 0.120478585 -0.05169904 0.314073 -0.37080246
0.22223325 -0.04611882 0.21118738 0.57751685 0.61733574 0.76233506 -0.4719109 0.028402366
-0.16005093 0.21172382 -0.23268504 -0.40583664 -0.2730622 -0.47442895 0.38184458 -0.043536555
-0.36327347 0.24559307 -0.11213416 0.35308415 -0.0073535927 0.64375263 -0.15051512 -0.35522985
-0.0048755836 -0.20066883 -0.50812757 0.00848848 0.16269188 -0.28607255 -0.22748812 0.18079038
0.13706166 -0.0024893002 0.036987685 -0.013954268 -0.0034215031 -0.44508284 -0.5699274 0.04049795
0.35942537 -0.15281372 -0.4740951 -0.25473872 0.33366606 -0.6642935 0.121972404 -0.07767557
00000000: 2f73 153c 3de3 1a3e f12f d9bd 94fc 473f
00000010: ab82 0d3e e070 f93e ab2c 59be d22d 5a3e
00000020: adca 983d 2499 a73d eb48 973e 5df2 743e
00000030: fb31 0c3c ddc4 ac3e 9c05 a4bd f6e9 f5bd
00000040: 5b4a abbb 12db 23be 3e3d f7bc 40d8 c0be
00000050: 84bd b73d 03cb 233d e236 94bd 47a6 1ebe
00000060: b13c b93d 64ba 2fbf 3494 cebe 7c3a e53e
00000070: 3603 41be c92a c63d f2c6 02bf fc3c 7ebd
00000080: f7bb 6d3e 0763 7fbd da95 293e e545 68be
00000090: e788 59be 0615 46be 378a 21be d3a1 c73e
000000a0: cde2 fb3d 1725 193e 10d8 063e 08d7 49be
000000b0: 0a7d 32be 6baa 43be 7c4f 9dbc 5609 92be
000000c0: 90cc a03e c50e 2bbe 4659 853c 136f f5be
000000d0: 29d6 9c3d 2f6c a73e 5804 e6be d9b8 3f3e
000000e0: dc81 f3bd 85e9 ecbd a49e 27bf 722b 42bf
000000f0: 1aba efbe bbfd 673d 608d f1bd ae70 2abd
00000100: 2292 87be 4b14 d83e 1f3b 4fbf 7a20 0b3f
00000110: 2970 bdbc 1d73 1c3e f607 c1be b4a0 cb3e
00000120: 351a 2e3e 209c cf3e 0194 16bf 721f 04bf
00000130: 30fb 09bf 9330 633d 7365 0dbe 98c6 3bbe
00000140: e687 013d 67ff 43bf 2cba 97be 5470 a03c
00000150: a071 a6be 5b40 113f d193 043f 4848 6cbe
00000160: a37f 3c3e 42fb 32be 0409 da3d 6d2b d9be
00000170: 24e8 88bb 1d41 893e 01c3 57be 7d35 a4be
00000180: 1ef0 1b3f f7dd 4e3e a4f0 72be 8dfe 5d3e
00000190: acc0 2abf 6f76 87bd cfb5 1d3e e493 90be
000001a0: a351 c93e 81ec 003f debf a63e 6f8f 503e
000001b0: e1b2 8c3d ad55 33be 7c5f 043e b5a0 cd3e
000001c0: 2636 2bbd 6e86 373e db41 a33d 6c1b b03d
000001d0: 98db 123e 3f8f 123e 2ded 91be 7f6c b4bd
000001e0: 35a2 d63e 45c1 88be 116a ab3e 5a14 0b3e
000001f0: 282e 2fbe 7a75 dc3e 6f39 c33e 5d8f e03d
00000200: 0ea8 83bd 590b 39be c18e 383f e3fc 5a3e
00000210: ff56 02bf 623d 16bd 365f 663d 5f12 e93e
00000220: bea1 b9be 791f cc3e bc7a 90be a393 8a3e
00000230: 7d19 43be 6dda 72be d5cd 8dbc 3cd9 84bd
00000240: 8009 a0be 79b5 b5be 0f95 35be 7ddb 0b3f
00000250: 6439 97bc 4544 bdbe 0496 913e 2615 e43d
00000260: 65f5 7c3d 9297 bdbe f44e 37bf b52c a13e
00000270: 3592 c4be 2172 dcbe b404 c63e 07bb 9a3c
00000280: aa8e c93d 6d32 97bd 82ba ec3d 648d 983e
00000290: 3851 98be 2682 863d 20af f9bd b5cb 2fbc
000002a0: 829a bf3d 5a36 0cbe 1df8 843e 8072 aabd
000002b0: 2c9f acbd 6a35 a63c f2a9 60be 5e55 d43d
000002c0: 424a ec3d 0f41 10bf c43d 1a3d b7f0 c73d
000002d0: 54b8 203d 9d66 a2bd 75d5 99be e037 e7bd
000002e0: d233 653c dfdb bb3e 2f28 8f3e 48f3 07bf
000002f0: 97f0 e3be 072a 2b3e 5648 34be f336 96be
00000300: 12b7 f03e dff0 eabd dfb9 953e 71c9 bfbc
00000310: 5567 2abf 6af7 a73e ff8d 74bd 8127 143f
00000320: c81f c83e 1906 dbbe b808 5a3f c6dd 10bd
00000330: 7abd f63d 5fc2 53bd 2dce a03e d2d9 bdbe
00000340: 1d91 633e 16e7 3cbd 8141 583e 25d8 133f
00000350: b709 1e3f 6428 433f 4e9e f1be 14ac e83c
00000360: 64e4 23be 21ce 583e fd44 6ebe d2c9 cfbe
00000370: cfce 8bbe 5ae8 f2be 2281 c33e 6353 32bd
00000380: fbfe b9be c07c 7b3e 98a6 e5bd 72c7 b43e
00000390: 68f6 f0bb f9cc 243f a320 1abe b0e0 b5be
000003a0: 5cc3 9fbb 217c 4dbe a614 02bf 4413 0b3c
000003b0: b398 263e 1a78 92be a5f2 68be 1d21 393e
000003c0: e459 0c3e 8723 23bb 6680 173d 71a0 64bc
000003d0: 4c3b 60bb e6e1 e3be c3e6 11bf 2ee1 253d
000003e0: 9a06 b83e 337b 1cbe 98bc f2be 1d6d 82be
000003f0: 47d6 aa3e 240f 2abf abcc f93d 5f14 9fbd

bias f4 [32]
-0.10220322 -0.0634185 0.056573145 -0.004207072 -0.2832525 -0.23243421 -0.12384199 0.1193941
-0.0031231642 -0.26408756 -0.16632089 0.06480305 0.039993145 -0.31488436 0.38825837 0.037235126
0.10844781 -0.24383466 0.07785769 -0.20701358 0.13829361 -0.22433607 0.033553667 0.13345447
-0.23546171 -0.08884842 0.06733297 0.1443173 -0.2150957 0.26052985 -0.33694822 -0.33827716
00000000: ec4f d1bd 8fe1 81bd 3eb9 673d 7adb 89bb
00000010: 7906 91be 3c03 6ebe dfa0 fdbd e584 f43d
00000020: 00ae 4cbb 7c36 87be 0650 2abe 76b7 843d
00000030: dacf 233d 8638 a1be cdc9 c63e dc83 183d
00000040: e319 de3d cbaf 79be da73 9f3d 5efb 53be
00000050: d79c 0d3e 5bb8 65be 926f 093d 4aa8 083e
00000060: e01c 71be 29f6 b5bd dee5 893d eac7 133e
00000070: 0c42 5cbe 2b64 853e 7a84 acbe aa32 adbe

weight f4 [12, 32]
0.06517609 0.16594465 -0.010406068 -0.09114709 -0.09345521 0.11896091 -0.10332037 0.018954793
-0.10574734 -0.061244596 -0.1636301 0.18136908 0.1241656 0.011896654 -0.16022326 -0.07111158
-0.24933487 -0.19234583 -0.002676323 0.29996118 -0.14812447 0.13002756 0.1245224 0.6194738
0.28340212 -0.074842006 -0.059034463 -0.11948133 0.09715116 -0.09428242 0.43107852 -0.050008103
-0.43367413 0.40957612 -0.27321967 -0.47859877 0.44211295 -0.107882634 -0.09733892 0.41176596
0.31759587 0.102254264 0.1024366 0.58781 0.04327803 -0.39048946 -0.05246018 0.0009848109
0.040209044 0.28475672 -0.100506194 -0.49857047 -0.043885734 0.3962553 0.57226795 -0.18307793
0.08392481 -0.1133911 0.088939115 -0.16947976 -0.0086402185 0.6970796 0.18214792 -0.34562021
0.07808733 -0.17692003 -0.37203768 -0.07181205 0.08498149 -0.19825135 -0.0886799 0.18505211
-0.27400577 0.141351 0.19506574 -0.06770028 -0.39002857 -0.60647523 0.2252884 -0.26234043
0.18207188 -0.31962764 -0.15826264 0.37934983 0.22014685 -0.52537435 0.30924815 -0.04980921
-0.029523145 0.03573427 0.00029920126 0.36418596 0.18546893 -0.1504126 0.2862805 -0.05623615
0.15861763 0.09243522 0.15292603 -0.033415094 0.14639962 0.20456558 -0.08574845 0.41192698
-0.118628144 -0.14957592 -0.040158637 0.05588295 0.19026706 -0.05294444 0.08229648 0.300799
-0.120351925 -0.13955104 0.36717463 -0.100004874 0.15886793 -0.34223992 0.14813915 0.041164033
-0.41891912 -0.06498393 -0.0209333 0.4730886 0.09718586 0.029518973 -0.1959989 -0.3302282
0.21933043 -0.2727138 -0.09025701 0.7625416 0.24838327 0.20832336 -0.07970182 0.03683135
0.040496 0.8104393 0.089639924 0.39626935 -0.5035048 -0.096499324 -0.14362068 -0.16049148
-0.23414487 -0.23219034 -0.29057288 -0.49274364 0.28079388 -0.41974658 0.08463881 0.019332813
-0.3975722 0.57578474 -0.21399824 0.14514112 0.10791305 0.44207934 0.22244574 0.10472805
-0.7123542 -0.031490527 -0.3975999 0.37401557 0.18786128 -0.066203095 0.16243948 0.13626508
0.660052 -0.12529595 0.6312046 0.35372332 0.2598527 0.0016372468 -0.30905837 0.18488012
-0.37062553 0.17173715 0.3769733 0.3539405 0.23992291 0.42638704 -0.25788832 -0.2322099
-0.17340502 -0.26566467 -0.18847077 0.21488489 -0.082972854 -0.25418335 0.5963126 -0.28314242
-0.18198189 -0.07148563 -0.4155078 0.07850258 -0.00092386967 0.14026004 0.320525 -0.015749041
-0.073071115 0.02733626 0.2949994 -0.15492178 -0.23740491 0.52647024 0.43202877 0.17281306
0.014663328 -0.17789504 0.22062497 -0.19128425 -0.16122457 -0.12185827 0.37533382 0.1691199
0.094299264 0.06932385 0.17985113 -0.06911493 0.23274586 0.08554316 0.006042611 0.07125933
-0.3026402 -0.44416642 -0.21218053 -0.04582589 -0.5330993 -0.11273734 -0.39989957 -0.19111364
0.42200992 0.2891909 -0.26266718 -0.7882071 0.004503766 0.38653097 -0.020569157 0.013559254
-0.21824382 0.04411733 -0.45023596 0.046065502 0.05364264 -0.22675623 0.4550095 -0.09230688
-0.014420295 0.17578486 -0.13689151 0.42462036 0.1838361 -0.395397 -0.19917005 -0.22954471
00000000: 0b7b 853d 65ed 293e 367e 2abc 53ab babd
00000010: 7265 bfbd c7a1 f33d a199 d3bd 1547 9b3c
00000020: 1092 d8bd 9ddb 7abd a68e 27be d1b8 393e
00000030: 894a fe3d 2fea 423c 9111 24be f3a2 91bd
00000040: a451 7fbe 4ef6 44be 4065 2fbb 8394 993e
00000050: f1ad 17be f225 053e 9a05 ff3d d695 1e3f
00000060: 151a 913e c446 99bd 1fce 71bd a1b2 f4bd
00000070: 30f7 c63d 2417 c1bd 53b6 dc3e 4cd5 4cbd
00000080: 890a debe f6b3 d13e 73e3 8bbe e60a f5be
00000090: a15c e23e 92f1 dcbd a159 c7bd fdd2 d23e
000000a0: ed9b a23e af6a d13d 48ca d13d b77a 163f
000000b0: 4e44 313d 3cee c7be 7ce0 56bd c514 813a
000000c0: 3db2 243d a2cb 913e 31d6 cdbd a144 ffbe
000000d0: 87c1 33bd fae1 ca3e 2780 123f c878 3bbe
000000e0: c5e0 ab3d 9839 e8bd b625 b63d 1a8c 2dbe
000000f0: b48f 0dbc cf73 323f fc84 3a3e 22f5 b0be
00000100: 40ec 9f3d 862a 35be b97b bebe 3212 93bd
00000110: c70a ae3d 6702 4bbe cf9d b5bd 4d7e 3d3e
00000120: 7c4a 8cbe 51be 103e 50bf 473e 72a6 8abd
00000130: d3b1 c7be f641 1bbf 01b2 663e 7c51 86be
00000140: 0d71 3a3e 3ca6 a3be 9a0f 22be 243a c23e
00000150: 2d6e 613e ef7e 06bf c655 9e3e be04 4cbd
00000160: 86da f1bc 195e 123d 1dde 9c39 9576 ba3e
00000170: 91eb 3d3e c305 1abe 5c93 923e e157 66bd
00000180: a96c 223e ad4e bd3d a498 1c3e 44de 08bd
00000190: c8e9 153e a479 513e e29c afbd 18e8 d23e
000001a0: 50f3 f2bd 6e2a 19be 627d 24bd 85e5 643d
000001b0: 5ed5 423e 45dc 58bd 0f8b a83d 5402 9a3e
000001c0: 127b f6bd 78e6 0ebe 50fe bb3e 5bcf ccbd
000001d0: 46ae 223e 123a afbe cab1 173e 9e9b 283d
000001e0: 917c d6be 4b16 85bd 507c abbc ab38 f23e
000001f0: 6109 c73d c6d1 f13c f0b3 48be ac13 a9be
00000200: 2898 603e 25a1 8bbe abd8 b8bd ed35 433f
00000210: 2f58 7e3e b852 553e b53a a3bd 78dc 163d
00000220: 22df 253d f378 4f3f 2395 b73d d1e3 ca3e
00000230: b1e5 00bf 70a1 c5bd 4d11 13be e157 24be
00000240: acc3 6fbe 4ec3 6dbe f8c5 94be e548 fcbe
00000250: 37c4 8f3e 06e9 d6be 1d57 ad3d d95f 9e3c
00000260: 958e cbbe a166 133f 5b22 5bbe e09f 143e
00000270: 8401 dd3d 3958 e23e d1c8 633e a97b d63d
00000280: d85c 36bf 36fc 00bd 3792 cbbe f87e bf3e
00000290: b55e 403e 7d95 87bd 8956 263e 1389 0b3e
000002a0: 2bf9 283f 954d 00be a096 213f 391b b53e
000002b0: 6a0b 853e e398 d63a e63c 9ebe 3751 3d3e
000002c0: a1c2 bdbe dddb 2f3e a502 c13e b037 b53e
000002d0: 5aae 753e 674f da3e f009 84be 6fc8 6dbe
000002e0: 1691 31be 3305 88be 7bfe 40be c90a 5c3e
000002f0: aced a9bd 5224 82be f1a7 183f 0bf8 90be
00000300: 7659 3abe 0f67 92bd 70bd d4be f6c5 a03d
00000310: d82f 72ba 54a0 0f3e da1b a43e 2204 81bc
00000320: 4fa6 95bd 4bf0 df3c 290a 973e d1a3 1ebe
00000330: 461a 73be c1c6 063f e032 dd3e e8f5 303e
00000340: 753e 703c 1e2a 36be 83eb 613e 05e0 43be
00000350: 0e18 25be d490 f9bd c12b c03e c42d 2d3e
00000360: f91f c13d aaf9 8d3d e52a 383e 218c 8dbd
00000370: ee54 6e3e 4131 af3d 1801 c63b 69f0 913d
00000380: a8f3 9abe c869 e3be da45 59be eeb3 3bbd
00000390: 3279 08bf d6e2 e6bd a3bf ccbe 4bb3 43be
000003a0: af11 d83e d410 943e 507c 86be f1c7 49bf
000003b0: 5494 933b 63e7 c53e a680 a8bc a227 5e3c
000003c0: 4f7b 5fbe 60b4 343d 5485 e6be 2eaf 3c3d
000003d0: 63b8 5b3d c932 68be 01f7 e83e 640b bdbd
000003e0: 1a43 6cbc f200 343e 4a2d 0cbe d767 d93e
000003f0: 883f 3c3e 7a71 cabe 3cf3 4bbe c50d 6bbe

bias f4 [12]
-0.17074312 0.053396333 -0.08406729 0.12989068 0.17658035 -0.36877647 0.028906366 -0.09748147
-0.0641762 0.07763204 0.108084604 -0.17216377
00000000: 49d7 2ebe 1db6 5a3d 792b acbd 1002 053e
00000010: 7bd1 343e 45d0 bcbe 0bcd ec3c 5da4 c7bd
00000020: d06e 83bd 8cfd 9e3d 765b dd3d b34b 30be

weight_ih_l0 f4 [256, 47]
0.4423719 0.7918233 0.00043114944 -0.91591185 -0.81531525 0.22670363 0.19286907 -0.15347083
0.3308154 -0.37600344 -0.6373155 0.16701604 -0.07179871 0.259421 0.111370124 -0.012294307
0.73928034 0.43048456 -0.42683786 0.95198977 -0.21977895 -0.3507095 0.10452404 -0.31906742
-1.3954053 0.16510653 0.3343396 -0.19941035 0.4796303 -0.80486596 -0.6888863 0.0036581082
-0.1803715 0.03716901 0.50798076 0.060925685 0.54476845 -0.065077305 0.32510155 0.2040569
-0.13131364 -0.17621233 -0.03833723 0.14868674 -0.37631646 -0.16774012 0.3631493 -1.4194248
0.34871528 -0.008008011 0.7076214 0.7503382 -0.28940323 0.31927246 0.87187207 0.25173846
0.30173644 0.063561775 1.116666 0.04179357 -0.56754047 0.15153052 -0.583694 -0.7885281
0.90185076 0.055023503 -0.48590598 0.07248452 0.2668014 0.5785866 0.52017194 -0.21065927
-0.046413187 0.06015614 0.36886275 0.04187486 0.34067822 -0.42906445 0.012148185 -0.10935658
-0.0992565 -0.34611428 -0.09873806 0.00298892 -0.7008686 -0.0818541 -0.38046485 -0.7217085
-0.30399585 -0.33038777 0.27661988 -0.20393947 -0.41080675 -0.30314133 -0.4011532 -0.71495
-0.38459378 -0.25523087 1.9046652 0.4500512 -0.40247682 0.24527082 0.54443645 0.015502914
0.45787868 0.2679235 -0.4569367 0.63079166 -1.3142778 0.87140393 -0.56223196 1.8038857
-0.40932065 0.044445872 0.08974572 0.0484818 -0.4690941 -0.048945036 -0.33463812 0.27178964
0.09181963 0.58107895 -0.7638016 0.38569275 -0.5790199 0.6156167 0.6485664 0.0399926
-0.3826601 0.5037338 -0.37100232 -0.0955187 0.1513112 0.5125496 -0.54093146 0.69703007
-0.76069295 -0.25967652 0.12356425 0.29806688 0.1443399 -0.5946924 0.27697378 0.39926687
0.9493819 -0.15436515 -0.18239903 0.13342987 -0.085526615 -0.44256532 0.4279513 -0.3186086
1.5066639 -0.026204817 -0.084744774 0.35050565 -0.28601745 -0.91085285 0.41436177 0.7710284
-1.4551786 0.73050135 0.100822255 -0.05527506 0.37996644 0.7350307 -0.38583115 0.13112366
-0.21547538 -1.5950825 0.60686743 0.422772 -1.2307819 0.8881023 -0.031265836 -0.16558363
0.20468526 0.08298229 0.18829075 -0.24135424 -0.0022941595 -0.044545963 0.40410385 0.03237341
-0.18466946 0.089459404 -0.023224322 -0.13151993 0.18932931 -0.8945562 0.23802325 -1.0674398
0.42996788 -0.25428614 -0.06116747 -0.2398546 0.010042568 -0.9348857 -0.14934441 -0.66496116
-0.5257826 -0.07208317 -0.28203845 0.09967045 1.0084783 -0.66318613 0.3973377 0.25541237
0.09771392 0.44557378 0.3080402 -0.5065857 0.27866417 -0.8390773 -0.07238243 -0.11106641
0.3530075 -0.7878615 1.1643537 -0.8230727 -0.2360848 -0.08398655 -0.20011608 0.39603293
0.15743636 -0.14576405 -0.45565155 0.05296544 -0.28804496 0.4858891 -0.48242223 0.12711939
-0.11326229 -0.02016898 0.9430294 -0.753729 0.583796 -0.3309619 0.52478355 -0.06073703
0.07994914 -0.6451209 -0.26880452 -0.95969325 -0.310257 -1.7444068 -1.1357045 0.1646868
-0.39619067 -0.9857724 0.092646085 -0.8470582 -0.04037646 -0.14039567 0.35557643 0.3774967
00000000: 927e e23e efb4 4a3f e60b e239 3379 6abf
00000010: 80b8 50bf ff24 683e 787f 453e 7527 1dbe
00000020: a360 a93e 8683 c0be 1c27 23bf 4106 2b3e
00000030: 340b 93bd d4d2 843e 0516 e43d 106e 49bc
00000040: 7a41 3d3f 7968 dc3e 7e8a dabe 9ab5 733f
00000050: bc0d 61be 3290 b3be b310 d63d ce5c a3be
00000060: a49c b2bf b011 293e 8f2e ab3e 3a32 4cbe
00000070: 1a92 f53e b20b 4ebf da5a 30bf dfbc 6f3b
00000080: 4eb3 38be 883e 183d 070b 023f 368d 793d
00000090: f275 0b3f 4047 85bd b673 a63e 4bf4 503e
000000a0: 1577 06be 0171 34be 8007 1dbd 5641 183e
000000b0: 8dac c0be 11c4 2bbe b4ee b93e b6af b5bf
000000c0: cf8a b23e 0834 03bc ad26 353f 2a16 403f
000000d0: a92c 94be ae77 a33e 0233 5f3f dde3 803e
000000e0: 337d 9a3e ad2c 823d e9ee 8e3f bc2f 2b3d
000000f0: 554a 11bf d12a 1b3e f86c 15bf fadc 49bf
00000100: b1df 663f 5360 613d abc8 f8be c472 943d
00000110: 319a 883e 401e 143f fd29 053f 10b7 57be
00000120: c11b 3ebd 4966 763d 94db bc3e f984 2b3d
00000130: 606d ae3e 56ae dbbe 2e09 473c 58f6 dfbd
00000140: fe46 cbbd e435 b1be 2e37 cabd c2e1 433b
00000150: 206c 33bf 1fa3 a7bd 4acc c2be e3c1 38bf
00000160: 58a5 9bbe 9628 a9be 1fa1 8d3e 82d5 50be
00000170: 4355 d2be 5735 9bbe f463 cdbe f706 37bf
00000180: 7ae9 c4be 9fad 82be 12cc f33f 1c6d e63e
00000190: 7111 cebe 4628 7b3e 3060 0b3f efff 7d3c
000001a0: 136f ea3e 452d 893e 9bf3 e9be 907b 213f
000001b0: 413a a8bf 5414 5f3f 6fee 0fbf bae5 e63f
000001c0: 7a92 d1be e00c 363d 9bcc b73d da94 463d
000001d0: 1a2d f0be 977a 48bd b055 abbe 0328 8b3e
000001e0: ee0b bc3d 97c1 143f 8088 43bf 8579 c53e
000001f0: a63a 14bf 0e99 1d3f 7308 263f 48cf 233d
00000200: 06ec c3be b3f4 003f 04f4 bdbe 4f9f c3bd
00000210: 53f1 1a3e 7336 033f 7c7a 0abf 9070 323f
00000220: c6bc 42bf 52f4 84be 410f fd3d 399c 983e
00000230: d7cd 133e c33d 18bf 82cf 8d3e b56c cc3e
00000240: b10a 733f e611 1ebe d0c6 3abe d7a1 083e
00000250: 9428 afbd ec97 e2be 6f1c db3e ab20 a3be
00000260: 5dda c03f 7cab d6bc ab8e adbd 7a75 b33e
00000270: e170 92be a72d 69bf 3a27 d43e 1e62 453f
00000280: 4b43 babf 2302 3b3f e67b ce3d 1a68 62bd
00000290: f68a c23e f92a 3c3f a98b c5be 4845 063e
000002a0: 94a5 5cbe aa2b ccbf aa5b 1b3f 9275 d83e
000002b0: 438a 9dbf ac5a 633f 9b10 00bd c18e 29be
000002c0: 0399 513e 9ef2 a93d 4acf 403e 9125 77be
000002d0: 9c59 16bb d475 36bd b3e6 ce3e fb99 043d
000002e0: fe19 3dbe 7e36 b73d ef40 bebc 29ad 06be
000002f0: 8bdf 413e a301 65bf 5ebc 733e dea1 88bf
00000300: c024 dc3e cb31 82be be8a 7abd 729c 75be
00000310: 9589 243c ab54 6fbf beed 18be e53a 2abf
00000320: b099 06bf 57a0 93bd 5867 90be 0520 cc3d
00000330: d115 813f 91c6 29bf d96f cb3e 69c5 823e
00000340: 3c1e c83d 3f22 e43e 72b7 9d3e 9aaf 01bf
00000350: 12ad 8e3e c5cd 56bf 3d3d 94bd c976 e3bd
00000360: 66bd b43e 4bb1 49bf 8b09 953f e4b4 52bf
00000370: 37c0 71be 2401 acbd 3beb 4cbe d4c4 ca3e
00000380: ff36 213e 2c43 15be 294b e9be 4af2 583d
00000390: a17a 93be 75c6 f83e 0c00 f7be 962b 023e
000003a0: 0ff6 e7bd 6b39 a5bc 606a 713f 62f4 40bf
000003b0: a873 153f d773 a9be 3758 063f 64c7 78bd
000003c0: 60bc a33d a526 25bf bfa0 89be 75ae 75bf
000003d0: 01da 9ebe b948 dfbf c45e 91bf a8a3 283e
000003e0: 81d9 cabe 945b 7cbf 3bbd bd3d ced8 58bf
000003f0: c961 25bd e2c3 0fbe 1d0e b63e 3f47 c13e

weight_hh_l0 f4 [256, 64]
0.71572423 -0.018527603 0.49547207 0.2808281 1.937741 -1.0975848 -0.0340924 -0.39786926
-0.17812186 -0.54244435 -0.18915014 0.24007171 -0.8014145 -0.003958729 0.44512585 0.9632987
-0.82177305 -1.4223115 0.38687232 -0.11183231 -0.5419261 0.13672152 0.3887866 -0.811813
-0.25808293 1.0776159 -0.33446255 0.3625966 -0.10813565 -0.017373404 0.16746917 -0.7856136
0.6429156 -0.28899997 -0.34036046 0.17070533 -0.30141214 -0.17788772 0.8579606 -0.16755144
0.79030186 -0.8081613 0.43530768 0.76545924 0.4014628 0.096202604 0.26370686 0.13501129
-0.43130803 0.14617743 -0.3331016 -0.2196797 -0.16459802 -0.15622404 -0.63000053 -0.084148206
-0.36551073 -0.78230643 -0.34709975 0.8395901 -0.87876815 0.8134786 -0.57105917 0.084776714
-0.052296557 -0.022971306 -0.78007746 0.26420286 -1.2652208 0.33151686 -0.18933544 -0.5390786
0.20984462 -0.9461311 -0.59911394 -0.16627277 0.17356993 0.04447444 0.47957242 -0.20152776
-0.76521623 -0.07580373 0.13132079 -1.672117 0.29148036 0.004257979 -0.1944592 0.18012549
-0.6966968 0.6913267 0.48011237 0.64938647 -0.34539688 -0.28043485 0.15234202 -0.58569753
0.25683367 0.33707082 0.2820985 0.11352781 -0.3912058 0.0911303 0.5486182 -0.7400509
-0.8628413 0.42668343 1.3181256 0.16075794 0.47760746 0.3809054 0.10947732 0.5446732
-0.59559155 0.5037181 -0.27281466 0.9406148 -0.2572368 0.003750999 -0.06820667 0.07241128
-0.17573498 -0.09842554 0.15689436 0.17513353 -0.45913452 -0.38491136 0.29570752 -0.46662238
0.079233 0.25986254 0.519716 -0.11817263 0.020293938 0.23287626 -0.099730104 -0.68414414
-0.062495824 0.01979568 0.31051397 0.10642756 0.19562823 1.1773642 -0.22315256 0.08499146
-0.20564131 -0.3829195 -0.049186602 0.14228836 0.052463837 -0.39556947 -0.063300416 0.033617362
1.0755045 -0.028296357 0.27120697 0.18225648 -0.16418485 -0.0875704 -1.5659987 0.3103736
-0.14333455 0.6375862 -0.3170145 -0.090557426 -0.4302542 0.83516747 0.26310503 -0.31514743
-0.889479 -0.068916425 0.32168317 0.7717734 0.48801172 0.06646863 1.1923938 0.90320736
-0.33702445 0.6900821 0.33771116 -0.26780605 -0.4787171 0.98667043 -0.34088632 0.38488752
0.70234364 0.0179476 -0.48652187 0.33631036 -0.09568682 -0.42472023 0.53043604 0.84435964
-0.4156696 0.14617752 0.16944778 0.20328571 -0.11694877 -0.18870176 0.20166232 0.2070962
0.24486633 -0.16312109 0.25179023 0.5309245 -0.14065212 0.22664951 0.067986466 0.3198739
-0.44025362 -0.18753451 -0.7413999 0.11528719 -0.47539026 -0.57224643 0.061068594 0.036720593
-0.88541174 -0.3591011 -0.2732448 0.05775597 0.6090963 -0.07466628 0.25916818 0.055035457
-0.026668 -0.10740706 -0.055979777 -0.053617477 -0.4699929 1.3453091 0.70302397 -0.033541106
0.2913762 0.36020198 -0.16264014 -0.0076826075 -0.0373353 -0.01820251 -0.032824907 -0.23687117
0.058010485 0.22503403 0.28502008 -0.19799228 -0.37063688 0.20636821 -0.047218405 -0.08223273
0.058824338 -0.040639255 0.056808203 0.08880941 -0.10233247 0.51051015 0.051562585 0.6663299
00000000: b439 373f 33c7 97bc 84ae fd3e b3c8 8f3e
00000010: e607 f83f a97d 8cbf 79a4 0bbd 85b5 cbbe
00000020: 9465 36be a2dd 0abf 93b0 41be 5cd5 753e
00000030: 8029 4dbf 3ab8 81bb 89e7 e33e be9a 763f
00000040: b85f 52bf 4e0e b6bf 2114 c63e 5708 e5bd
00000050: abbb 0abf ba00 0c3e 0a0f c73e fad2 4fbf
00000060: 7223 84be 51ef 893f ad3e abbe 43a6 b93e
00000070: 3976 ddbd ab52 8ebc 0a7d 2b3e f91d 49bf
00000080: 1e96 243f cef7 93be ba43 aebe 61cd 2e3e
00000090: b152 9abe 3328 36be 4ea3 5b3f 9b92 2bbe
000000a0: 3951 4a3f a9e3 4ebf a6e0 de3e 23f5 433f
000000b0: 888c cd3e df05 c53d 9604 873e 6640 0a3e
000000c0: 68d4 dcbe 89af 153e 4b8c aabe b7f3 60be
000000d0: 628c 28be 32f9 1fbe b747 21bf e555 acbd
000000e0: 3924 bbbe 3c45 48bf 0fb7 b1be 60ef 563f
000000f0: f3f6 60bf 2240 503f ef30 12bf 6a9f ad3d
00000100: ea34 56bd 522e bcbc 28b3 47bf 9945 873e
00000110: c1f2 a1bf 94bc a93e 26e1 41be 0e01 0abf
00000120: 82e1 563e a635 72bf 885f 19bf 6943 2abe
00000130: 51bc 313e d52a 363d 848a f53e 4b5d 4ebe
00000140: 36e5 43bf fc3e 9bbd f578 063e ee07 d6bf
00000150: ea3c 953e 8486 8b3b 5020 47be d172 383e
00000160: b95a 32bf c9fa 303f 4ad1 f53e 313e 263f
00000170: dcd7 b0be 2895 8fbe 8cff 1b3e 46f0 15bf
00000180: b47f 833e 8c94 ac3e 376f 903e 4581 e83d
00000190: 204c c8be 86a2 ba3d 3e72 0c3f fa73 3dbf
000001a0: 2be3 5cbf 4076 da3e 57b8 a83f bb9d 243e
000001b0: f788 f43e 0806 c33e a535 e03d b46f 0b3f
000001c0: b078 18bf abf3 003f 5dae 8bbe 22cc 703f
000001d0: 8bb4 83be 52d3 753b f0af 8bbd 5d4c 943d
000001e0: dff3 33be 5493 c9bd eaa8 203e 3456 333e
000001f0: ae13 ebbe 1a13 c5be fa66 973e 21e9 eebe
00000200: e944 a23d b40c 853e 1c0c 053f 7e04 f2bd
00000210: 793f a63c 1d77 6e3e 4c3f ccbd 1224 2fbf
00000220: 9ffb 7fbd 8d2a a23c b0fb 9e3e b1f6 d93d
00000230: c452 483e dfb3 963f 1b82 64be 0110 ae3d
00000240: a393 52be 060e c4be e477 49bd 0ab4 113e
00000250: 52e4 563d 1588 cabe a6a3 81bd 5cb2 093d
00000260: 22aa 893f c3cd e7bc a4db 8a3e 71a1 3a3e
00000270: 1320 28be 1c58 b3bd a572 c8bf 4ae9 9e3e
00000280: 4bc6 12be d938 233f b94f a2be 2c76 b9bd
00000290: 474a dcbe 89cd 553f b4b5 863e 015b a1be
000002a0: e5b4 63bf 0e24 8dbd a8b3 a43e f192 453f
000002b0: acdc f93e b520 883d 5ca0 983f 9938 673f
000002c0: 788e acbe 38a9 303f 7ae8 ac3e e01d 89be
000002d0: 681a f5be 6f96 7c3f a788 aebe fa0f c53e
000002e0: cbcc 333f d806 933c 6519 f9be df30 ac3e
000002f0: 74f7 c3bd ee74 d9be a8ca 073f f427 583f
00000300: a5d2 d4be 8faf 153e b883 2d3e 212a 503e
00000310: d682 efbd 093b 41be 9180 4e3e 0711 543e
00000320: 3dbe 7a3e 3709 27be a6ea 803e abea 073f
00000330: 1c07 10be cf16 683e 7d3c 8b3d 83c6 a33e
00000340: ec68 e1be 0c09 40be 62cc 3dbf b11b ec3d
00000350: 5a66 f3be be7e 12bf 1023 7a3d 5568 163d
00000360: 58aa 62bf 19dc b7be bee6 8bbe 8691 6c3d
00000370: bced 1b3f a2ea 98bd b1b1 843e dc6c 613d
00000380: d976 dabc 3cf8 dbbd 0d4b 65bd 009e 5bbd
00000390: e9a2 f0be 1733 ac3f 61f9 333f 6662 09bd
000003a0: 432f 953e 656c b83e 238b 26be 62be fbbb
000003b0: e6ec 18bd 6e1d 95bc 6973 06bd 5b8e 72be
000003c0: 679c 6d3d 526f 663e 27ee 913e 7dbe 4abe
000003d0: 1ec4 bdbe 3052 533e 1668 41bd a269 a8bd
000003e0: caf1 703d 5975 26bd b8af 683d b5e1 b53d
000003f0: b093 d1bd cbb0 023f 4a33 533d 9994 2a3f

bias_ih_l0 f4 [256]
-0.14942147 0.38949046 -0.47937045 0.28471863 0.21515149 -0.26407653 0.055815052 0.1315634
0.34986255 0.24758813 0.045288123 0.2763607 0.3906828 -0.3832995 0.25431 -0.22939493
0.1732485 0.07059332 0.22486016 0.15251292 0.25532347 -0.11747841 -0.13503447 -0.4599583
0.6719191 -0.097663306 0.38600576 -0.17019176 -0.2541521 0.025834054 -0.14680246 -0.266097
0.8312416 0.14686286 -0.38189778 0.35308832 -0.07012991 -0.19860077 -0.054173157 0.11759187
0.15046671 -0.033479873 0.104398705 -0.30798197 -0.038000327 -0.24598926 0.14179137 0.51088405
0.45859388 -0.15982156 0.21327803 0.24148852 -0.28960747 -0.09480912 0.20054781 0.027233073
0.06089678 0.41474864 -0.14462407 0.17059965 -0.005692726 0.22626013 -0.22733653 0.0013696826
-0.052591994 -0.35938856 -0.34513837 -0.031567365 -0.19502543 -0.21877666 -0.37342945 -0.46856767
-0.45141566 -0.19242907 -0.43090457 0.07910066 -0.09429503 -0.041055426 -0.4317343 -0.041657165
-0.082349226 -0.0817622 -0.32635006 -0.3978397 -0.2290565 -0.30336857 -0.40549153 -0.4304524
-0.061072208 -0.21892546 -0.64861834 -0.34966362 -0.3541256 -0.43700624 0.05672281 -0.49333397
-0.61906654 -0.1302928 -0.60840154 -0.44569188 -0.3206177 -0.1915391 0.09153279 -0.32763594
-0.12189389 -0.24444515 -0.5950075 -0.6699487 -0.07007383 -0.06302666 -0.27530572 0.19663107
-0.45165032 0.0665888 -0.098453 -0.63926095 -0.07788664 -0.21679594 -0.17365567 0.11051446
-0.20896421 -0.33451438 -0.6738361 -0.24830915 -0.47473964 -0.34002513 -0.51158977 -0.19303815
-0.13248362 0.023163157 0.102990046 -0.051420346 -0.28162178 0.31792513 0.083825156 -0.17487882
-0.19326343 0.25263602 -0.26010543 0.14571245 -0.1514782 0.42849877 0.0373622 0.121234156
-0.067825645 -0.25543568 -0.27630726 0.24329504 -0.04335393 0.18746634 -0.050839495 -0.18707478
-0.12622859 0.20088899 0.14090317 -0.09265922 -0.14896613 -0.07329855 0.00057571084 0.020641819
0.0867272 -0.26241732 0.100951046 -0.14133361 0.19052023 -0.23156823 0.24603534 -0.12438769
0.11666521 0.07130243 0.18164606 -0.22146922 -0.075998306 0.06858318 -0.036089372 0.14537433
-0.06044754 0.014182596 0.06064232 0.008028617 0.2524879 -0.07975879 0.21615355 0.010830189
0.041123606 0.139266 -0.14297037 -0.13118157 0.19105928 0.19587584 -0.1660972 -0.34028983
-0.26956823 0.05077724 -0.23072356 0.2917467 -0.090963595 -0.17568454 0.16698621 0.116281524
0.26757932 -0.37164766 -0.06618359 0.41408777 -0.043334566 -0.18422559 0.17645994 -0.099766016
0.009666201 0.0023612685 -0.057671607 -0.10012646 0.03968667 0.12824078 0.5189728 0.32744774
-0.081955224 -0.0330272 0.22072291 -0.36908892 -0.10629362 0.13909791 -0.4086108 -0.53040093
0.11424843 0.17084804 -0.09298401 0.54320556 -0.20063928 0.12510552 -0.20845155 -0.057542805
0.034714907 0.20277677 -0.010873518 0.009478508 0.13052742 0.41943607 0.10559188 -0.10369578
0.5081919 -0.15837805 -0.06344004 0.6192464 -0.26005304 -0.2365447 -0.006318096 0.067057215
-0.025180494 0.14822775 -0.2864265 0.031642746 0.12234095 -0.1876916 -0.1345504 -0.15722579
00000000: f101 19be 4b6b c73e 0b70 f5be a4c6 913e
00000010: ac50 5c3e 0a35 87be 539e 643d 8eb8 063e
00000020: 2f21 b33e be87 7d3e 0a80 393d 267f 8d3e
00000030: 9307 c83e d53f c4be ec34 823e 81e6 6abe
00000040: 0e68 313e 3b93 903d be41 663e 592c 1c3e
00000050: c2b9 823e 8598 f0bd 7a46 0abe a87f ebbe
00000060: e402 2c3f b303 c8bd 8ca2 c53e c046 2ebe
00000070: 3920 82be f0a1 d33c 6253 16be de3d 88be
00000080: 40cc 543f 3863 163e 1b88 c3be fec7 b43e
00000090: 45a0 8fbd 005e 4bbe ace4 5dbd 02d4 f03d
000000a0: f213 1a3e 3122 09bd fdce d53d d0af 9dbe
000000b0: 3ba6 1bbd 9ce4 7bbe c231 113e 4cc9 023f
000000c0: d1cc ea3e 43a8 23be 8e65 5a3e c448 773e
000000d0: 6e47 94be 492b c2bd 685c 4d3e e517 df3c
000000e0: e76e 793d ef59 d43e 5518 14be adb1 2e3e
000000f0: 0c8a babb bcb0 673e e8ca 68be ec86 b33a
00000100: b46a 57bd c701 b8be fab5 b0be c84c 01bd
00000110: bfb4 47be fd06 60be 2532 bfbe 1ae8 efbe
00000120: f41f e7be 200c 45be 869f dcbe 87ff a13d
00000130: c11d c1bd bc29 28bd 470c ddbe b4a0 2abd
00000140: b6a6 a8bd f172 a7bd 5b17 a7be a5b1 cbbe
00000150: ca8d 6abe 2053 9bbe 969c cfbe 4264 dcbe
00000160: da26 7abd ff2d 60be da0b 26bf 1c07 b3be
00000170: f34f b5be 48bf dfbe 2d56 683d 4596 fcbe
00000180: 257b 1ebf 7a6b 05be 34c0 1bbf ba31 e4be
00000190: 0128 a4be d322 44be 8b75 bb3d e6bf a7be
000001a0: 81a3 f9bd d44f 7abe 6952 18bf c281 2bbf
000001b0: de82 8fbd 1f14 81bd dff4 8cbe a859 493e
000001c0: b63e e7be b55f 883d baa1 c9bd 9ba6 23bf
000001d0: 0883 9fbd c1ff 5dbe cbd2 31be 6855 e23d
000001e0: b7fa 55be 7845 abbe 8680 2cbf c144 7ebe
000001f0: 1311 f3be c617 aebe 8cf7 02bf cbab 45be
00000200: c9a9 07be a9c0 bd3c 72ec d23d 249e 52bd
00000210: bb30 90be 15c7 a23e 86ac ab3d 6f13 33be
00000220: d9e6 45be 8259 813e 8a2c 85be a535 153e
00000230: 1a1d 1bbe 3164 db3e 1b09 193d 9d49 f83d
00000240: 2ce8 8abd 77c8 82be 2578 8dbe 5622 793e
00000250: e493 31bd 2df7 3f3e 133d 50bd 8890 3fbe
00000260: 1142 01be d8b5 4d3e ec48 103e 1ec4 bdbd
00000270: 948a 18be 8d1d 96bd 4deb 163a 0819 a93c
00000280: 089e b13d 905b 86be 6cbf ce3d c2b9 10be
00000290: bc17 433e 3920 6dbe b0f0 7b3e f9be febd
000002a0: 2bee ee3d 0207 923d 6d01 3a3e d4c8 62be
000002b0: 00a5 9bbd 5775 8c3d 73d2 13bd 02dd 143e
000002c0: d797 77bd 1e5e 683c 1564 783d 768a 033c
000002d0: 1846 813e 9458 a3bd 5b57 5d3e 1b71 313c
000002e0: 3a71 283d bf9b 0e3e d366 12be 7654 06be
000002f0: 0ba5 433e ad93 483e 6215 2abe 783a aebe
00000300: d904 8abe ccfb 4f3d cc42 6cbe d35f 953e
00000310: 1f4b babd a6e6 33be 6ffe 2a3e 0225 ee3d
00000320: 2800 893e 9a48 bebe 438b 87bd 5003 d43e
00000330: 967f 31bd a2a5 3cbe eab1 343e 2052 ccbd
00000340: fc5e 1e3c 83bf 1a3b 1039 6cbd 1a0f cdbd
00000350: 7d8e 223d 8d51 033e 67db 043f 3ba7 a73e
00000360: 24d8 a7bd 8747 07bd 3005 623e 39f9 bcbe
00000370: 78b0 d9bd af6f 0e3e 6f35 d1be 5bc8 07bf
00000380: 15fb e93d caf2 2e3e 676e bebd 850f 0b3f
00000390: 6274 4dbe a91b 003e 5374 55be 01b2 6bbd
000003a0: 3831 0e3d b7a4 4f3e d726 32bc be4b 1b3c
000003b0: fba8 053e 53c0 d63e 8e40 d83d 745e d4bd
000003c0: dd18 023f db2d 22be daec 81bd ef86 1e3f
000003d0: ac25 85be c638 72be 0808 cfbb 4b55 893d
000003e0: 5347 cebc 04c9 173e 7fa6 92be d39b 013d
000003f0: e48d fa3d 3a32 40be 94c7 09be ccff 20be

bias_hh_l0 f4 [256]
-0.2058087 0.39251223 -0.47289807 0.23878343 0.13977335 -0.14765888 0.13509315 0.25216854
0.29673734 0.19825174 0.16919613 0.26230457 0.44787437 -0.46276876 0.3942059 -0.17218319
0.12226976 0.19954975 0.16899057 0.13339101 0.3382291 -0.12493174 -0.08107714 -0.43049186
0.7466119 -0.1471237 0.32034865 -0.17923386 -0.18996592 0.10722161 -0.30161557 -0.2851601
0.7197938 0.3439659 -0.3419576 0.49755317 -0.13314992 -0.3534914 -0.0415927 0.0059029157
0.25743946 0.14590226 -0.0839541 -0.3738015 -0.025264457 -0.3749918 0.09325227 0.46739796
0.3362992 -0.094397835 0.37057602 0.13285594 -0.3233212 -0.057310026 0.25357205 0.17394179
-0.06918048 0.3224493 -0.2874431 0.0507858 -0.040831335 0.22860709 -0.13058747 0.00021642387
-0.16131355 -0.31276244 -0.29386926 -0.10086523 0.0070376876 0.01368936 -0.4036986 -0.6439206
-0.3236934 -0.121694446 -0.21936096 0.113248765 -0.29743335 -0.2622532 -0.26245528 -0.11111741
-0.18211272 -0.09396338 -0.3420186 -0.43552238 -0.27544826 -0.36684963 -0.31720778 -0.29144472
0.0850774 -0.17217991 -0.71151376 -0.34638947 -0.2838415 -0.44013774 0.10468316 -0.26181954
-0.6629605 -0.26154026 -0.58261144 -0.596521 -0.20402811 -0.2173635 -0.03511482 -0.23219024
-0.025268273 -0.17777286 -0.60532534 -0.5363257 -0.03918817 4.9910836e-06 -0.21982487 0.055621415
-0.44667688 -0.0699361 -0.15466532 -0.6794698 -0.14085631 -0.20362008 -0.013856581 -0.11428364
-0.16647038 -0.26247463 -0.44087178 -0.31900534 -0.46962875 -0.32966638 -0.47377297 -0.22546409
-0.09072119 0.23935899 0.063029975 -0.07597615 -0.081270024 0.117738105 0.15230313 -0.053716723
-0.37383994 0.09444592 -0.20676729 0.029928418 0.020239102 0.31338635 -0.08045678 -0.08344224
-0.0178128 -0.17164724 -0.18478309 0.18885745 0.007095724 0.12460327 0.09962625 -0.113358915
-0.12288192 0.05985003 -0.048297126 -0.08283349 -0.03214817 -0.036803354 -0.10823028 -0.069702595
-0.10435755 -0.2770313 0.0639736 -0.31803375 0.06947419 -0.2548352 0.2017217 -0.15789066
-0.008868661 0.0854888 0.29456693 -0.22989269 -0.057620414 0.055955373 -0.034738492 0.12773308
0.0019345378 -0.026019944 -0.0077666016 -0.09719827 0.2523008 0.09706623 0.077372566 -0.006112801
0.15324318 0.15572515 -0.014587623 -0.015488979 0.30357945 -0.012730222 -0.25084332 -0.17411527
-0.11816034 0.09274395 -0.17950548 0.30289996 -0.024321599 -0.1738467 0.26655933 0.08518174
0.22848026 -0.35687783 0.015174675 0.43465292 0.12701261 -0.31395307 0.27325496 -0.20568281
-0.015753228 -0.0013107056 0.07591085 0.09896348 0.24537596 -0.0018914175 0.4780919 0.15350851
-0.11647977 -0.19578378 0.11473352 -0.4324865 -0.16260694 0.13984938 -0.46160036 -0.58455914
0.30440933 0.110244274 -0.19697171 0.658023 -0.19105406 0.1576172 0.007826506 -0.07595625
0.02727322 0.19328089 -0.21829182 -0.017825829 0.13413502 0.55168825 0.23438297 0.015576253
0.47252625 -0.23472533 0.12110755 0.5556473 -0.28779748 -0.14070986 0.007925714 0.0426071
-0.15070994 0.068424374 -0.3800074 -0.093198225 0.114583224 -0.13034774 -0.12081217 -0.12736873
00000000: 84bf 52be 5df7 c83e b21f f2be a583 743e
00000010: bf20 0f3e e433 17be dc55 0a3e 3c1c 813e
00000020: f5ed 973e 8102 4b3e c041 2d3e c94c 863e
00000030: ca4f e53e 07f0 ecbe 5bd5 c93e ca50 30be
00000040: 9168 fa3d c556 4c3e dd0b 2d3e a797 083e
00000050: 5d2c ad3e 36dc ffbd c60b a6bd 6e69 dcbe
00000060: f521 3f3f 98a7 16be bd04 a43e 1589 37be
00000070: 6d86 42be 0197 db3d 5b6d 9abe 8100 92be
00000080: 6844 383f 4c1c b03e 1115 afbe 4abf fe3e
00000090: 7458 08be d3fc b4be 1b5d 2abd 3f6d c13b
000000a0: 1bcf 833e 6767 153e 21f0 abbd e962 bfbe
000000b0: 68f7 cebc edfe bfbe 0cfb be3d c94e ef3e
000000c0: 692f ac3e a753 c1bd 24bc bd3e 630b 083e
000000d0: 5b8a a5be ebbd 6abd 32d4 813e cc1d 323e
000000e0: 7fae 8dbd 1318 a53e be2b 93be c504 503d
000000f0: c23e 27bd fa17 6a3e b9b8 05be d7ef 6239
00000100: 612f 25be 6622 a0be 0876 96be 6e92 cebd
00000110: 679c e63b 5649 603c 95b1 cebe fbd7 24bf
00000120: 24bb a5be f03a f9bd 29a0 60be f8ee e73d
00000130: 2f49 98be 0d46 86be 8a60 86be 8691 e3bd
00000140: c27b 3abe df6f c0bd 101d afbe cafc debe
00000150: 8e07 8dbe b7d3 bbbe 0f69 a2be 3e38 95be
00000160: 0f3d ae3d ee4f 30be c425 36bf f659 b1be
00000170: ac53 91be bc59 e1be 2064 d63d 360d 86be
00000180: c8b7 29bf 9be8 85be 0626 15bf 9ab5 18bf
00000190: bfec 50be 8a94 5ebe 8fd4 0fbd 47c3 6dbe
000001a0: 69ff cebc 170a 36be 9af6 1abf a44c 09bf
000001b0: c683 20bd 1579 a736 c519 61be 48d3 633d
000001c0: d5b2 e4be a83a 8fbd 9660 1ebe bcf1 2dbf
000001d0: a33c 10be c881 50be b706 63bc 8b0d eabd
000001e0: 3677 2abe 1363 86be f2b9 e1be ab54 a3be
000001f0: 2e73 f0be 08ca a8be 5f92 f2be 0fe0 66be
00000200: 08cc b9bd 861a 753e dc15 813d 6299 9bbd
00000210: e670 a6bd ad20 f13d 5af5 1b3e 1106 5cbd
00000220: f367 bfbe dd6c c13d ceba 53be 712c f53c
00000230: 79cc a53c 2d74 a03e 86c6 a4bd c4e3 aabd
00000240: 26ec 91bc 4bc4 2fbe c737 3dbe d963 413e
00000250: 3f83 e83b 0030 ff3d d908 cc3d b828 e8bd
00000260: 84a9 fbbd 4e25 753d 35d3 45bd 9ba4 a9bd
00000270: cdad 03bd 1dbf 16bd d6a7 ddbd 3cc0 8ebd
00000280: 69b9 d5bd 0cd7 8dbe 9704 833d 52d5 a2be
00000290: 7c48 8e3d c279 82be 2290 4e3e 17ae 21be
000002a0: dc4d 11bc c114 af3d 7ad1 963e fd68 6bbe
000002b0: 6203 6cbd 7631 653d f349 0ebd 76cc 023e
000002c0: 5190 fd3a c727 d5bc fa7e febb e30f c7bd
000002d0: 922d 813e a9ca c63d 8275 9e3d e44d c8bb
000002e0: c8eb 1c3e 6a76 1f3e ed00 6fbc 7dc5 7dbc
000002f0: c46e 9b3e 6c92 50bc 896e 80be 464b 32be
00000300: 0cfe f1bd 8af0 bd3d 49d0 37be b415 9b3e
00000310: 173e c7bc df04 32be 777a 883e c473 ae3d
00000320: bbf6 693e b1b8 b6be 339f 783c d48a de3e
00000330: 980f 023e 75be a0be 13e8 8b3e 849e 52be
00000340: ea0c 81bc fbcb abba 2677 9b3d 5dad ca3d
00000350: d643 7b3e 71e9 f7ba 76c8 f43e 5631 1d3e
00000360: f28c eebd 8b7b 48be 68f9 ea3d df6e ddbe
00000370: 6f82 26be ad34 0f3e e256 ecbe aba5 15bf
00000380: 8adb 9b3e c0c7 e13d f4b2 49be 3274 283f
00000390: ada3 43be 6766 213e bf3a 003c f38e 9bbd
000003a0: 166c df3c 6deb 453e e487 5fbe 7907 92bc
000003b0: b15a 093e 713b 0d3f 1702 703e 8a33 7f3c
000003c0: f6ee f13e d65b 70be 3c07 f83d e73e 0e3f
000003d0: 315a 93be 3f16 10be dbda 013c c884 2e3d
000003e0: b553 1abe 1422 8c3d 5490 c2be b6de bebd
000003f0: 9caa ea3d e179 05be 5f6c f7bd f36c 02be
