deploy/pre_train/bhr8/policy_lstm_1_bhr8_Apr04_16-53.pt (torch, 145745 bytes, 10 tensors)

hidden_state f4 [1, 1, 64]
00000000: 0000 0000 0000 0000 0000 0000 0000 0000
00000010: 0000 0000 0000 0000 0000 0000 0000 0000
00000020: 0000 0000 0000 0000 0000 0000 0000 0000
00000030: 0000 0000 0000 0000 0000 0000 0000 0000
00000040: 0000 0000 0000 0000 0000 0000 0000 0000
00000050: 0000 0000 0000 0000 0000 0000 0000 0000
00000060: 0000 0000 0000 0000 0000 0000 0000 0000
00000070: 0000 0000 0000 0000 0000 0000 0000 0000
00000080: 0000 0000 0000 0000 0000 0000 0000 0000
00000090: 0000 0000 0000 0000 0000 0000 0000 0000
000000a0: 0000 0000 0000 0000 0000 0000 0000 0000
000000b0: 0000 0000 0000 0000 0000 0000 0000 0000
000000c0: 0000 0000 0000 0000 0000 0000 0000 0000
000000d0: 0000 0000 0000 0000 0000 0000 0000 0000
000000e0: 0000 0000 0000 0000 0000 0000 0000 0000
000000f0: 0000 0000 0000 0000 0000 0000 0000 0000
0.0 0.0 0.0 0.0 0.0 0.0 0.0 0.0
0.0 0.0 0.0 0.0 0.0 0.0 0.0 0.0
0.0 0.0 0.0 0.0 0.0 0.0 0.0 0.0
0.0 0.0 0.0 0.0 0.0 0.0 0.0 0.0
0.0 0.0 0.0 0.0 0.0 0.0 0.0 0.0
0.0 0.0 0.0 0.0 0.0 0.0 0.0 0.0
0.0 0.0 0.0 0.0 0.0 0.0 0.0 0.0
0.0 0.0 0.0 0.0 0.0 0.0 0.0 0.0

cell_state f4 [1, 1, 64]
00000000: 0000 0000 0000 0000 0000 0000 0000 0000
00000010: 0000 0000 0000 0000 0000 0000 0000 0000
00000020: 0000 0000 0000 0000 0000 0000 0000 0000
00000030: 0000 0000 0000 0000 0000 0000 0000 0000
00000040: 0000 0000 0000 0000 0000 0000 0000 0000
00000050: 0000 0000 0000 0000 0000 0000 0000 0000
00000060: 0000 0000 0000 0000 0000 0000 0000 0000
00000070: 0000 0000 0000 0000 0000 0000 0000 0000
00000080: 0000 0000 0000 0000 0000 0000 0000 0000
00000090: 0000 0000 0000 0000 0000 0000 0000 0000
000000a0: 0000 0000 0000 0000 0000 0000 0000 0000
000000b0: 0000 0000 0000 0000 0000 0000 0000 0000
000000c0: 0000 0000 0000 0000 0000 0000 0000 0000
000000d0: 0000 0000 0000 0000 0000 0000 0000 0000
000000e0: 0000 0000 0000 0000 0000 0000 0000 0000
000000f0: 0000 0000 0000 0000 0000 0000 0000 0000
0.0 0.0 0.0 0.0 0.0 0.0 0.0 0.0
0.0 0.0 0.0 0.0 0.0 0.0 0.0 0.0
0.0 0.0 0.0 0.0 0.0 0.0 0.0 0.0
0.0 0.0 0.0 0.0 0.0 0.0 0.0 0.0
0.0 0.0 0.0 0.0 0.0 0.0 0.0 0.0
0.0 0.0 0.0 0.0 0.0 0.0 0.0 0.0
0.0 0.0 0.0 0.0 0.0 0.0 0.0 0.0
0.0 0.0 0.0 0.0 0.0 0.0 0.0 0.0

weight f4 [32, 64]
00000000: 5ecc 02bf 6081 b93e c55b 363e 3325 593f
00000010: 2b50 d3bc 3d6d c43e c5e9 c8bd 1543 e93d
00000020: 56d3 9c3d 9bdf 093e 89ff c33e 4661 453e
00000030: 541e 1abd d44f 123e 10c7 cfbd 1a5b 663d
00000040: 2574 29be 460c 5ebe a857 303d df97 8bbe
00000050: 2f90 d33d 2d89 5b3d 223c 9b3c 271d a83d
00000060: 7550 6f3b 242b 37bf 0e73 89be d907 4b3e
00000070: 1646 a4be bebf f33d 661b 93be 3129 93bd
00000080: de2e 6e3e c354 8b3d 6cf6 1e3e f8f0 45be
00000090: 56b5 c9bd b86f 0cbe 3926 82be 328f 5f3e
000000a0: 695e 463e 7758 873d 4ba3 343e 6129 97be
000000b0: c5d5 05be 8016 f2be d1c0 223d da9d b0be
000000c0: 9221 0e3e 4050 dbbd c013 a9bd 7c51 edbe
000000d0: 39bb 9cbd df5b 903e 8593 aabe 838f dd3e
000000e0: 99cb 9b3c 9a9d e7bd 95ae 19bf 774b 66bf
000000f0: f404 9abe 7fa3 dfbd 4f16 0bbe 45a2 42be
00000100: 4e34 46be b50c 043f 6415 0ebf 7d1d d63e
00000110: c4c5 5dbd 3a84 d13d 1073 73be cacd 9a3d
00000120: 816d e73e 1a15 e33e 1d1b 10bf 2e3e 8cbe
00000130: 8a6c 14bf 679f 8bbb d77a a9bd 0da9 753b
00000140: 5c3a 8f3d 4bb9 17bf 11b3 6abe 3864 663d
00000150: 5ae5 56be 537c db3e 7698 1b3f 9001 97be
00000160: af9c 1abc a9fc c3be 4c3d 843e 2d0c b2bd
00000170: 6509 403d 0b32 f43d 1c74 12be d41b adbe
00000180: cea7 083f 349b 323e a458 2ebe af5b cc3e
00000190: 5344 fabe edf6 9bbd 5ee7 5f3e c844 bcbc
000001a0: 1a5e bb3e e7c1 e63e bf95 d33e 7fe6 2f3e
000001b0: db2d 123e b104 bbbd 1b8f f9bd c30e ea3e
000001c0: 37e3 b9be c457 003e a17b 113e c906 55be
000001d0: 64fe 713e 9431 373e 1c95 b6be 01e6 04be
000001e0: 0f19 063f ec5b 64be 396e d43e 00f3 b53d
000001f0: 3726 993d 5b78 e63e ccd1 d23e 703e 823e
00000200: 154c 47be 5a9c 05bc 80bd d73e cab0 d23c
00000210: 8b6d b4be c7e5 abbd 363d 1e3e 2550 213e
00000220: 65b5 84be 6c71 d23e 2c03 66be 1c6d 913e
00000230: b3cf 10be bea3 1bbc 2517 1bbe 223f 8abc
00000240: bd39 c2be f23d 47be bb78 1cbe dead fe3e
00000250: d171 7c3c d176 a9be 770d c43e 30f3 2c3e
00000260: eb52 4dbe 4662 a8be 1171 ccbe e320 453e
00000270: 0a85 04be 97e6 cabe 7988 d43e 3d09 253e
00000280: d3c5 fe3d 1037 29bc 1d13 ed3d 70ce c83d
00000290: 9298 09be 11a3 c1ba eb03 56be 845d 69bc
000002a0: 6aeb 193e 6e6d 80be 2ecc bd3d 5dbf b7bd
000002b0: 5415 42be cebd 02be a4d9 c7be 0f10 a63b
000002c0: 85c6 4cbd 8fea 25bf da36 bd3b b6c3 0bbe
000002d0: 58aa a7bc e26b c9bd f703 56be 3217 943b
000002e0: 97a9 623d 8f61 bd3e e48b c93e f50b 13bf
000002f0: b6e8 a7be 6686 773e 19c1 86be 1ad0 28be
00000300: e4fc 6f3e 5ee3 ae3d 5c9d 5d3e 3771 4fbd
00000310: d4c2 e1be 745c 1a3e 39f6 903e 8bb7 0b3f
00000320: 228f 5a3e 9776 fcbe 5a5f 663f c464 8c3d
00000330: ae77 9c3e 09ea db3e fbc1 093d 9649 fbbe
00000340: 56bf 4c3e 5d14 d83c 7d4d 173e 914d c53e
00000350: 3a7e f43e c471 3d3f 7fec eebe 8f54 553e
00000360: 8e78 71be 8803 993e a89d 72be 8ab5 9fbe
00000370: ba47 27be a416 8ebe 2ee8 763e 323f bfbc
00000380: 5eb4 f1be cfb7 333e 49eb 38be cf25 c23e
00000390: fcb4 14bc 3c02 1d3f b9a2 34be 2d22 b6be
000003a0: 4573 d5bd ff5c 8fbe 12fa e4be 8918 a33d
000003b0: 986e 2c3e 65a3 b73c 3a59 85be 2ec4 f03d
000003c0: d2bc 283e 3358 05bd 8127 883e 559a c4bd
000003d0: bd50 8cbc c2e7 fabe 5409 3ebe f973 853b
000003e0: 29ff bc3e 9e90 20bd 9223 93be fe36 61be
000003f0: 06af 7f3e b998 08bf b08d 92bb 2a83 9fbd
-0.5109309 0.36231518 0.17808445 0.84822387 -0.025795063 0.38364592 -0.09810213 0.11389748
0.07657497 0.13464205 0.38280895 0.19275388 -0.03762658 0.14288265 -0.1014539 0.056239225
-0.16548212 -0.2168437 0.043052346 -0.27264306 0.10330235 0.053597618 0.018949572 0.08208685
0.0036516462 -0.715502 -0.26845592 0.19827212 -0.3208472 0.11901806 -0.2873184 -0.07185591
0.23260066 0.068032764 0.1552369 -0.19330204 -0.0984904 -0.13714492 -0.25419787 0.21831968
0.19371952 0.0660867 0.17640416 -0.29523757 -0.13069828 -0.4728279 0.039734665 -0.3449543
0.13879994 -0.10708666 -0.0825572 -0.4635123 -0.076528974 0.28195092 -0.33315673 0.43273553
0.019017981 -0.11309357 -0.60032016 -0.899589 -0.30081904 -0.10919856 -0.13582729 -0.19007213
-0.1935589 0.5158189 -0.5550139 0.41819373 -0.054143682 0.10230298 -0.23774362 0.075587824
0.45200732 0.44352037 -0.5629137 -0.2739119 -0.5797812 -0.0042609456 -0.08275383 0.0037484795
0.06993553 -0.5926711 -0.22919871 0.05624792 -0.20985928 0.4286829 0.6077951 -0.2949338
-0.00943677 -0.38278702 0.25828016 -0.086937286 0.04688396 0.119236074 -0.14302105 -0.33810294
0.5338105 0.17442018 -0.17026001 0.399137 -0.48880252 -0.07615457 0.21865603 -0.022982016
0.3659523 0.4506981 0.41325185 0.17177771 0.14275305 -0.09131754 -0.12185498 0.45714387
-0.36306164 0.1253348 0.14207317 -0.2080337 0.23632199 0.17890006 -0.35660636 -0.12978365
0.52381986 -0.2230069 0.41490343 0.08884239 0.07477992 0.450137 0.41175687 0.2543826
-0.19462617 -0.008154953 0.42136765 0.025719065 -0.35239825 -0.08393436 0.15453038 0.15753229
-0.25919643 0.4110216 -0.22462147 0.28403556 -0.14141731 -0.009499488 -0.15145548 -0.016875807
-0.37934676 -0.19457224 -0.1528043 0.49742025 0.015407995 -0.33098462 0.38291523 0.16889644
-0.20051162 -0.32887477 -0.39930013 0.19250827 -0.12941375 -0.3962905 0.4151037 0.16116805
0.12440076 -0.010328069 0.11575911 0.09805 -0.13437107 -0.0014773329 -0.20899932 -0.014243487
0.1503121 -0.25083488 0.0926746 -0.089720465 -0.18953449 -0.12767717 -0.39033234 0.0050678323
-0.04999401 -0.64811033 0.005774361 -0.13648877 -0.020466968 -0.0983503 -0.2089995 0.0045193667
0.055337515 0.36988494 0.3936454 -0.5744012 -0.32794732 0.24172363 -0.26319197 -0.16485634
0.23436314 0.085394606 0.21642059 -0.05064508 -0.44093955 0.1507433 0.28312853 0.5457694
0.21343663 -0.49309227 0.89989245 0.06855157 0.30560058 0.42951992 0.03363226 -0.4907958
0.19994864 0.026376897 0.14775653 0.3853574 0.47752553 0.7400172 -0.46664807 0.20833038
-0.23581144 0.29885507 -0.23692954 -0.3119319 -0.16335955 -0.27751648 0.24112007 -0.023345564
-0.47207922 0.17550586 -0.18058504 0.3791947 -0.009076353 0.61331534 -0.17640199 -0.3557295
-0.104223765 -0.28000638 -0.44722039 0.07963664 0.16839063 0.02241678 -0.26044637 0.11756168
0.16478279 -0.032554816 0.2659264 -0.09599749 -0.017128343 -0.49004942 -0.18558246 0.004072663
0.36913422 -0.039200418 -0.28738075 -0.21993634 0.2496911 -0.53358036 -0.004472457 -0.077886894

bias f4 [32]
00000000: a1f4 21be 11eb d8bc 2987 1b3e 619e 803d
00000010: a52a 85be 9789 2ebe 5751 0cbe 5b4d 0d3e
00000020: c1bd 943d 1c28 a0be d827 05be a1b8 a93d
00000030: 2655 c93d 6739 82be ca66 bf3e 1375 2d3d
00000040: 385c c43c cf52 6cbe 3180 dd3d 19b9 49be
00000050: 2c04 e13d 6109 69be 7079 2f3c c225 273e
00000060: b6a1 50be 39e8 9fbd 24cf 3d3d 261d 9b3d
00000070: f5e8 82be 3f0a 883e eae5 ccbe 79db babe
-0.15815975 -0.026479276 0.15188278 0.062802084 -0.26009098 -0.17044674 -0.13702904 0.1379904
0.07262755 -0.312806 -0.1300348 0.08287168 0.09830694 -0.2543442 0.3738311 0.04234798
0.023969755 -0.23078464 0.10815466 -0.19699515 0.10987124 -0.22757484 0.010710105 0.16322997
-0.20374188 -0.07807965 0.046340123 0.07573919 -0.25568357 0.26570317 -0.4001916 -0.3649557

weight f4 [12, 32]
00000000: af7f 553d a07a ae3e 0d05 673d 4b27 a3bd
00000010: 8ea9 06be 169d 93bc 1b5a 7fbd b0e5 e33b
00000020: 53d6 efbd 7eaf f6bc 6fea 1dbe 5889 813e
00000030: 6745 263e 8f9b aebd 6b6f 2ebd 40e5 22be
00000040: af98 10be a123 32be cd3e 24bd a60b 9d3e
00000050: c286 61be eece 143e 34e8 853e bcb8 0c3f
00000060: cc3b c93d 1e2f 29bd 403b 383d 0acc 0bbe
00000070: ebde 5ebb 5cbc f0bb df0d a63e 2996 8dbd
00000080: e91b 8cbe 0a91 a53e 7551 2fbe 6619 e9be
00000090: e27b f13e 6e5b 2dbd 9d2f d1bd 6cb6 023f
000000a0: 8ccd 693e 950b 043e e01d 3d3d 32e9 243f
000000b0: 757a d53d 48a2 f1be 8cf4 45bd e669 a4bc
000000c0: b48f 953c e3ed 853e 2a6c aabd 7b59 edbe
000000d0: e109 66bb 0405 b63e a41a 043f cf5f 7cbe
000000e0: 9eda bdbc c4d6 0abe ff33 89bd c317 55be
000000f0: 4d71 84bd 8cfb 383f a32c 863e ca7e c7be
00000100: 8a53 cb3d e2f9 59bd c7e9 9fbe 0f62 87bd
00000110: 748e e73d f18d 85be b410 d3bc 37d3 f43d
00000120: bb5d c4be 9d04 843e 8a58 173e 424d f5bd
00000130: 18e6 ccbe 343e 11bf a5da 9a3e a9aa 02be
00000140: 3649 a23e 5a51 76be 05fd 35be e505 d93e
00000150: e871 2c3e f4fb c6be 2d74 9b3e 3fda d2bd
00000160: 41ba 4e3e f707 fa3c 1d2f ad3c e87e b13e
00000170: bd9f cb3d a62b 49be 739a 8b3e be63 76bb
00000180: cb08 a93d 4e8a 8a3d ea48 113e 39cd 8bbd
00000190: f15b ac3d dcf9 0b3e db4f 74be d7df cb3e
000001a0: ed71 acbd 8f22 2cbe 7ef9 f3bd ae03 c4bb
000001b0: 6125 473e 458b a4bd a475 c43d ea26 7a3e
000001c0: 124e d3bd 5c8a 04be e609 c33e 7112 5ebe
000001d0: d5ef 013e e72d 0bbf f775 8c3d eda1 d73d
000001e0: 654f e2be aa8e 8cbd 66f5 b4bd f0ec 9a3e
000001f0: ee59 533e d833 ff3c cd2f 0bbe 4c51 b5be
00000200: 01c7 833e 5742 0bbe 1160 583d 836d 313f
00000210: a487 933e 182a d33d d1d6 20be 5184 3f3d
00000220: 26b8 ca3d 71e3 4d3f 0256 693e c52f e03e
00000230: 26a8 f6be 5c39 06be 1532 e3bd c3f1 bdbd
00000240: 04f1 9ebe 0b75 86be e403 bfbe 7ad3 15be
00000250: 5b1f 4d3e 17ff 0cbf d9de 283d 67d5 103c
00000260: b8c6 dfbe 8262 063f c8b3 2fbe b436 c93e
00000270: 4948 783e 2b90 d93e 70c8 7e3d 5351 a93d
00000280: ef43 3ebf 3b07 313d 4414 babe 3b47 dd3e
00000290: 01b1 5a3e aebf a83c 1c29 72bb e4fb 9d3e
000002a0: 0b3b 053f ed2c 48be 9b53 403f af6b e23e
000002b0: 5887 4e3e 583c 5f3e 2eac b6be 6186 143e
000002c0: 60ac b2be 4c4d 3e3e 8ed3 de3e b9a2 2c3f
000002d0: 0fb3 293d b8f3 043f 2e19 d3be abe9 abbd
000002e0: a02b 1fbe bd1f 83be 5c57 59be c810 513e
000002f0: 3b73 30bc a8db aebe 9b26 ca3e 7ae0 a7be
00000300: ba6d 57be 650c fcbd 7fef 48be b64f 70bd
00000310: 7b5a 603d 83ee 3b3e a54e 593e 632f b6bc
00000320: 0792 f53c 8843 063d 3fbf 3a3e 203b 11be
00000330: a496 24bd 3f19 103f 9c60 013f 4390 d23d
00000340: ea72 3fbd 4e61 83be 7703 1c3e 6464 80be
00000350: da6d 03be 6f9e 24be d603 d83e bdc2 853e
00000360: ae99 d53d a736 8a3d bff6 eb3d e80f 233e
00000370: 8de7 d43d 1c6c 063d e6fe 27bc f732 843c
00000380: 561c 83be 3ddb e0be 3b4a 98be 3f04 1bbd
00000390: dc5f 09bf b3b3 51be a38f f1be beb4 15be
000003a0: 1bad d43e c21a a53e eb12 8ebe 61d3 34bf
000003b0: 7330 3f3d 95c4 ac3e 3d86 25be c6bd acbd
000003c0: 4f75 85be bcb0 7a3e 8827 d5be 65ad 053e
000003d0: 3893 4fbd bb40 15be 0ac7 a13e d178 8bbe
000003e0: 3be1 1e3c 92ee 273e 97ef 4bbe fddd a43e
000003f0: 3b86 0d3e 9a62 a4be 60dc fbbd 9964 90be
0.05212372 0.3407793 0.0564013 -0.07966479 -0.13150617 -0.01801924 -0.06234179 0.006954871
-0.11710801 -0.030112978 -0.1542146 0.25300097 0.16237412 -0.08525764 -0.042586725 -0.15907764
-0.14120744 -0.17396404 -0.040098954 0.3067295 -0.22024062 0.14532062 0.2615372 0.5496938
0.098258585 -0.0413047 0.04497838 -0.13652053 -0.0034007381 -0.007346673 0.32432458 -0.069134064
-0.27365044 0.3233722 -0.17120917 -0.4552719 0.47164828 -0.042323522 -0.1021416 0.51059604
0.22832316 0.12895043 0.04617107 0.6441833 0.104237475 -0.47194123 -0.04832892 -0.020070028
0.018257 0.26158056 -0.08321412 -0.4635733 -0.0035101103 0.35550702 0.5160315 -0.24645923
-0.023175534 -0.13558489 -0.066993706 -0.20809846 -0.06466923 0.7225883 0.2620593 -0.3896392
0.09928043 -0.053216822 -0.31233045 -0.066105 0.11306468 -0.26084855 -0.0257648 0.119543485
-0.3835276 0.2578477 0.14779869 -0.119776264 -0.40019298 -0.5673554 0.30244938 -0.12760414
0.3169648 -0.2405447 -0.177723 0.4238731 0.16840327 -0.388641 0.30362073 -0.102955334
0.20188238 0.030521376 0.02114063 0.34667134 0.09942577 -0.19645557 0.27266273 -0.0037596072
0.0825363 0.06764661 0.14187971 -0.068262525 0.08415974 0.13669533 -0.23858587 0.39819214
-0.08420167 -0.16810058 -0.11912821 -0.005981884 0.19447853 -0.08034376 0.09592751 0.24428907
-0.10317625 -0.12943405 0.3809349 -0.21686722 0.12689145 -0.54366916 0.068584375 0.10528932
-0.44201198 -0.068631485 -0.088358685 0.30258894 0.20639774 0.03115265 -0.13592453 -0.35413587
0.25737765 -0.13599525 0.05282599 0.69307727 0.28814423 0.10310763 -0.15706946 0.046757046
0.09898405 0.80425173 0.22786716 0.43786445 -0.48175162 -0.13107818 -0.11093537 -0.09274628
-0.31043255 -0.26261172 -0.37307656 -0.14631453 0.20031492 -0.55076736 0.04122815 0.008839942
-0.43706298 0.5249406 -0.17158425 0.39299548 0.24246325 0.42492804 0.06220287 0.082674645
-0.7432241 0.043219786 -0.36343586 0.43218407 0.21356584 0.020599212 -0.0036950773 0.3085624
0.5204322 -0.19548388 0.7512757 0.4422278 0.20168817 0.21800363 -0.35678238 0.14504386
-0.34897137 0.18584174 0.43520778 0.67435795 0.04143053 0.51934385 -0.41230148 -0.08394178
-0.15543985 -0.25610152 -0.21224731 0.20416558 -0.010769661 -0.3415196 0.3948258 -0.3278845
-0.21037951 -0.123070516 -0.1962261 -0.05866977 0.05477379 0.18352704 0.21221407 -0.022239393
0.029976858 0.032779247 0.18237017 -0.1418271 -0.040182725 0.5628852 0.5053804 0.10281422
-0.04674045 -0.25660175 0.15235697 -0.25076592 -0.12834874 -0.16076063 0.42190427 0.26125136
0.10429703 0.06748705 0.115216725 0.15924037 0.10395727 0.032817945 -0.010253644 0.016137583
-0.25607556 -0.43917266 -0.29744133 -0.037845846 -0.53661895 -0.20478706 -0.471799 -0.14619729
0.4153832 0.32246977 -0.27748808 -0.7063504 0.046677064 0.3374373 -0.16164489 -0.08434634
-0.26066062 0.24481481 -0.41631722 0.13054426 -0.050677508 -0.14575474 0.31597167 -0.27240613
0.009697254 0.16399601 -0.19915615 0.32200614 0.13820736 -0.32106477 -0.122978926 -0.2820175

bias f4 [12]
00000000: 97a5 27be 259c 353d a776 1abe 2c2b 003e
00000010: 5a76 223e c0fc 97be f58f 1abd 7bb4 bbbd
00000020: 8238 b8bd 4e6e cd3d 4824 3a3e e17f 52be
-0.16371761 0.044338364 -0.15084325 0.12516469 0.1586546 -0.2968502 -0.037734944 -0.09165283
-0.08995153 0.100308046 0.18177903 -0.20556594

weight_ih_l0 f4 [256, 47]
00000000: 09dd ee3e dfd1 2c3f 27d8 81be 7d55 6ebf
00000010: be55 66bf e94b 913e 6327 2e3f 1467 56be
00000020: 1d14 483d fadc e83a 10e4 34bf 9353 9f3e
00000030: e0a1 08be 0123 8d3e 2953 103e 0db5 fabb
00000040: 5485 543f cc55 193f 3666 e0be bcfb 4e3f
00000050: 7d6a 093e 7365 99be 4084 5a3e 7759 f7bd
00000060: e8cc 9bbf 5ec2 333e f0dd ac3e acaa b43e
00000070: 9f04 46bd 370e 70bf d228 febe 6c64 2bbe
00000080: a181 153f 5449 8b3e 7f81 c03e d7c8 2cbc
00000090: 740d bd3e b40d e9bd ccf9 f53e a6af 3dbe
000000a0: a574 fd3d 2941 e7bd 0fc2 823c c0c0 e3bd
000000b0: c4e0 60bd b733 e3bd 214e d23e beab 88bf
000000c0: 1cd1 0d3f 119c bebd 4065 1e3f a429 413f
000000d0: dbe6 ebbd 8281 bc3e 62e7 4f3f 8758 413e
000000e0: 404d 253f fbef cabd af38 b43f 27d1 02bd
000000f0: 8ca2 1fbf bdd0 533e 0263 d7be bd0b 21bf
00000100: cd8e 5f3f 402c 75bd 5fe4 ddbe e73a 933e
00000110: 5e93 743e 00d2 603e 1c4b 293f 9c7f aabe
00000120: 1562 e7be 6458 153d ee30 123f 3163 53be
00000130: 0c73 963e 50a7 3dbe 00b8 08bf 3f06 553c
00000140: b9f3 eabd c744 6dbe 2caf 4b3d 53f8 9e3c
00000150: 201a 3dbf fef3 98be 00b5 133d 969c 80bf
00000160: a65c c8be 6c9d eabe d3d0 393e 354e a9bd
00000170: acd1 20bf 8abc 61be 0bd4 b8be 3a8d 0abf
00000180: fbfb 96be 3055 09bf d438 b73f a9b0 df3e
00000190: c9fd b2be fbdf 9c3c 48eb 3a3f 516f c33d
000001a0: a04e 1a3f bbfb 373f 6e3e 00bf 9c41 103f
000001b0: 64a7 a7bf 5ef6 883f 2703 08bf f952 d03f
000001c0: 97ea 98be 4248 213d bb4d 5a3d ccc8 243e
000001d0: 4fc6 1bbf 220e 96be e7c8 8b3d de35 86bd
000001e0: 2944 113e 1e7f e33e 21d7 20bf ee43 2bbe
000001f0: e8ba babd baf2 483e 809d 0e3f 957f 383e
00000200: 14ef 40bd 026b 313f b808 53bf 646a 57bd
00000210: cfc7 a63e cd0b 5b3e 9329 b2be 5647 4d3f
00000220: 66f2 2abf 7c20 d8be d2f8 1fbe 1c37 123f
00000230: 64eb 003e d07a 01bf 51a4 c03e 1f10 063f
00000240: 3dc3 993f 14c9 15be 7c4e 34be a731 29bd
00000250: 598d ecbd b06d e9be 2453 403e f0d2 2fbf
00000260: e874 963f fbe3 df3c 92f8 b0bb 2317 c43e
00000270: 1910 8bbd 32de 63bf 34b1 313f a4b3 303f
00000280: cbc8 b0bf dddf 533f e1d8 093e 87d4 c4bd
00000290: 670e 183e 84fc 0f3f 9ebc 92be ff86 283e
000002a0: b12b ecb9 5922 abbf 30f7 223f 242a 273f
000002b0: ff09 cfbf 4b25 ff3e f78e 973e 7d02 1ebd
000002c0: ad39 633e ea07 293e e78b 4e3e accc f5bd
000002d0: a6a8 333e b087 cabd 4e92 f93e 48fd c13c
000002e0: 0682 3bbd 2a14 ea3d 5685 04bd 6679 3ebe
000002f0: ae36 8c3e 825a 75bf b426 093f 2a7b 57bf
00000300: 3b8d 093f 7d3e 0dbe 4d53 553e c293 89bc
00000310: b024 02bf 5d63 92bf cb81 b5be 2d77 2fbf
00000320: 6337 20bf 759f 10be 1b84 afbd 0ad5 a13b
00000330: 1c22 403f 1757 20bf 3ca0 ed3e 81f0 f03d
00000340: 3294 c13e b82f d63e 9f75 16be e325 e0be
00000350: d06a b23e c6f2 0abf 3e40 bb3c c252 9a3e
00000360: 67a8 003e 3e0d 343c 54ce d43e 94e2 e0be
00000370: 326b 113e 66a2 8cbd bbfe b6be 1229 c83e
00000380: 71b8 943b 04d4 c4bd 2392 02bf 9b3f e4bc
00000390: b115 b2bd 8d1f 5c3f 39af 2cbf 1fe3 b33c
000003a0: b56e 4dbe 86cc 70bd 7e2c 1a3f 8fd4 96bf
000003b0: e134 ff3e 8b8a ecbe ce81 073e 24c9 863e
000003c0: 1595 903e 92d9 aabd 92bc a13c 12d8 21bf
000003d0: 020b 82bf 92d2 16c0 f6c2 23bf 25d9 443e
000003e0: 0882 bfbe 4baa 46bf e5e4 b63e 8b66 b5be
000003f0: 3188 633d 0d58 00bf 050f 273f 0123 1d3e
0.4665301 0.6750774 -0.25360224 -0.93099195 -0.8997458 0.28378227 0.6802885 -0.20937759
0.048847307 0.0017766051 -0.70660496 0.3111845 -0.13343 0.27565768 0.14094223 -0.0076509775
0.8301594 0.5989654 -0.4382798 0.80852866 0.13419528 -0.29960212 0.21339512 -0.12077611
-1.2171907 0.17554614 0.33763075 0.35286462 -0.04834425 -0.9377169 -0.49640518 -0.16737527
0.58400923 0.27204382 0.37598798 -0.010545931 0.36924326 -0.11379567 0.48042142 -0.18524036
0.12375764 -0.11291725 0.015961675 -0.111207485 -0.054901853 -0.11093848 0.41075233 -1.0677412
0.553972 -0.09307111 0.61873245 0.75454164 -0.115186416 0.36817557 0.8121244 0.18881427
0.64571 -0.09909054 1.4079798 -0.031937744 -0.623574 0.20685096 -0.42067724 -0.62908536
0.8732727 -0.059856653 -0.43338296 0.28755876 0.23884341 0.21955109 0.6613023 -0.33300483
-0.45192018 0.03646125 0.5710591 -0.20643307 0.2938465 -0.18520856 -0.5340576 0.0130019775
-0.11472268 -0.23170768 0.049727604 0.01940552 -0.7386799 -0.2987365 0.036061287 -1.0047786
-0.39133185 -0.45823228 0.18146066 -0.0826687 -0.62819934 -0.22044578 -0.36099276 -0.54121745
-0.2948912 -0.5364561 1.4314218 0.43689469 -0.34959248 0.019149771 0.7301526 0.09542716
0.6027622 0.71868485 -0.5009526 0.5635011 -1.3097959 1.0700185 -0.5312981 1.6275321
-0.29866478 0.03937555 0.053296786 0.16092223 -0.6084947 -0.29307657 0.068254285 -0.06553243
0.14186157 0.4443292 -0.6282826 -0.16725132 -0.09117681 0.19623843 0.55709076 0.18017419
-0.047103003 0.69303906 -0.8243518 -0.052591696 0.32574317 0.2139122 -0.34797344 0.80186975
-0.6677612 -0.42212284 -0.15622261 0.5711534 0.12589794 -0.5057802 0.37625363 0.5236835
1.2012707 -0.14627486 -0.17608064 -0.041307118 -0.115503974 -0.45591497 0.18781716 -0.6868124
1.1754427 0.02733039 -0.0054007256 0.38298902 -0.0679018 -0.8901092 0.69411016 0.6902411
-1.3811277 0.82763463 0.13461639 -0.09610849 0.14849244 0.56244683 -0.28659528 0.16457747
-0.0004504598 -1.3369857 0.6365843 0.65298676 -1.6174926 0.4983314 0.2960126 -0.03857659
0.2218997 0.16506925 0.20170556 -0.12001929 0.17544803 -0.098891616 0.48744434 0.023680344
-0.045778297 0.11429627 -0.03235372 -0.18600997 0.27385467 -0.9584123 0.5357468 -0.8417231
0.53731126 -0.13793369 0.20832558 -0.01679409 -0.5083723 -1.1436573 -0.35450587 -0.6854122
-0.62584513 -0.14123328 -0.08570119 0.0049387263 0.75052047 -0.6263289 0.46411312 0.117646225
0.37808377 0.41833282 -0.14693306 -0.43778905 0.34847116 -0.5427669 0.022857781 0.30141264
0.1256424 0.010989485 0.41563666 -0.43922865 0.14201048 -0.068669125 -0.3574122 0.39093834
0.0045385887 -0.09610751 -0.51004237 -0.02786236 -0.086955436 0.8598564 -0.6745487 0.021958886
-0.20061763 -0.0587888 0.6022414 -1.1783618 0.4984503 -0.4619945 0.1323311 0.26325333
0.2823874 -0.083422795 0.019743238 -0.6322032 -1.0159609 -2.3566022 -0.6396936 0.19223459
-0.37403893 -0.77603596 0.35721508 -0.35429797 0.055549804 -0.50134355 0.65257293 0.15345384

weight_hh_l0 f4 [256, 64]
00000000: 6bf0 013f 47e0 3abd 8e8b 203f ff72 a93e
00000010: d0b8 fd3f aa9d 9bbf fd97 113e 8491 9abe
00000020: 7593 1abf 4941 2dbf b63b 893d 5bcf b93e
00000030: 3cb2 c3be a4b8 b1be 97f5 ad3e 752c 1f3f
00000040: 669d 34bf 9975 a6bf ca88 c43e 7f19 e2bc
00000050: dd9f 71bf de9d e0bd 00b8 e23e db0b 2dbd
00000060: 77f6 0abf a735 543f c7c1 ddbe 69f6 8a3e
00000070: ef9e 56be 0d60 9d3e 8ba2 a93d b205 37bf
00000080: b3cd b33e eaaf f9bd 57c0 13bf 031f c03e
00000090: f733 2fbe 8624 dabd 95dc 3e3f 45a4 a0bd
000000a0: 0f38 b23e fe2e e0be 5ac0 a83e dc9d 543f
000000b0: 5b7c d53e dda3 183e 4068 303f b444 753e
000000c0: 74f2 40be 6686 80be 318f 59be 6800 21be
000000d0: abc9 a9bd fbc3 9abe 3c62 0ebf 9906 abbd
000000e0: 5be9 84be 0a49 42bf 49e2 adbe af43 1e3f
000000f0: 737e 43bf 63fa 523f ed76 7dbe f56b b3be
00000100: 91c9 8b3e 3e8d 9dbe 2a12 82bf 6030 a5bd
00000110: 3303 8ebf 3c5b 803e e94f cebe b433 81be
00000120: 3df1 c53e 835b 56bf 78fb 32bf 1255 52bc
00000130: d632 a73e 241f a9be b5a8 f13e cb53 05be
00000140: 2b64 a5bf 27da 85be 1756 40bb cf67 bebf
00000150: 3edc d23e 3f7a 083d 8f14 8c3c 0679 62bd
00000160: c8a7 20bf f66b b03e f881 873e 325d 653f
00000170: 4ccf e8be ba60 f2bd 74b1 163e bec7 3dbf
00000180: ee32 e63d d0bb ad3e e945 033e 6745 a73e
00000190: fd48 d4be 8eb5 41be 8be4 4e3f e329 1cbe
000001a0: 8f0a 66bf 35d5 1d3f 5a30 943f 120c f13e
000001b0: ce1c 0d3f 38bf a43c e99a 3fbd 0152 443f
000001c0: 88de 26bf b025 293f 4d4b 97be 2a22 883f
000001d0: 4c93 e6be 785b 173d f57a 6b3e 2ab3 113e
000001e0: 5c11 bebe 0096 89be 0e85 0a3d 4987 f63d
000001f0: b90c 04bf 235e 6ebe 31e9 d43e 383d d9be
00000200: 1675 bc3e 5008 883e c66e 3f3f 5f7c c33d
00000210: 6334 bcbe 986d 1e3e d815 923e 5a65 60bf
00000220: 75e1 d73c 8482 27bf 3500 893e 5335 cdbe
00000230: c33b 3a3f 2bd6 9c3f f78f ebbe 0554 febd
00000240: a942 d1bd 5eff b1be df6c 6fbe e0ea 1fbe
00000250: 35b2 203d 905e 4dbe a8b3 2bbf e610 8fbe
00000260: 6ac9 863f 386b d83d 4c74 1a3f a2c3 76be
00000270: 3b64 07bf bd2f 2ebe 519d b1bf 0d8d 2f3e
00000280: 189e db3c 7e5e 2f3f 67ce 31bf 5c7e 98be
00000290: fa80 a9be b720 2c3f c926 003e bee9 8cbe
000002a0: 1011 59bf 3103 5ebe 9f92 893e 2556 333f
000002b0: a3c0 0b3f 515b ffbd 7f78 613f 1e13 733f
000002c0: 5e0e 84be dd78 fd3e 9706 ed3e 64a1 59bd
000002d0: f7c2 5bbe 9e35 893f 8426 83bf 8bdc 333e
000002e0: 4eac 7f3f e46d de3d 728d 13bf bf77 b13e
000002f0: e525 7cbd 5da1 2ebf 3a83 c53e 21bc 6d3f
00000300: 38fc debe 0661 e03c b647 5b3d 8a8f 983e
00000310: 2876 ff3c 6479 10be 1886 9b3e d65f a4bc
00000320: b81e 753e 7ec3 40bd c070 8b3e e9c5 f73e
00000330: 0625 92bd cb44 143f 317c 6e3d b57c d33e
00000340: 7ab3 a8be 745d 943c c57f 97bf 1eb0 f93d
00000350: ba2c d2be 4a25 fabe 7098 7f3e d754 073f
00000360: 749b 2abf 81b5 0abf d63f 64bd 4f0c 823c
00000370: 1cca 113f 1733 a9be 224c d43e 2af8 2bbd
00000380: e3c2 b53d 3423 81bd 9f5f 9abc 52c0 85bc
00000390: 6e30 b0be 536b 973f e6d8 3e3f d0b9 b73e
000003a0: 8b1a 053f 9c19 05bf 66e0 aabe c827 71bd
000003b0: 9f54 90ba cd86 3abe 2b88 d7bd 9bac afbe
000003c0: b4c7 563e 8386 9e3e 6012 543e d718 8bbe
000003d0: 6b7d b5be 03d3 5a3e 11a4 c9bd 24e9 fc3d
000003e0: 3cb6 353e 5aef 1ebe 12f4 c03c 5b28 833e
000003f0: 584e 9dbe 8137 173f 6cf9 aa3d fe9a ba3e
0.50757474 -0.045624044 0.62712944 0.33095548 1.9822025 -1.215749 0.14218135 -0.30189145
-0.6038125 -0.6767774 0.06700842 0.36291012 -0.3822192 -0.34711182 0.33976433 0.6217721
-0.7055267 -1.3004638 0.38385612 -0.027600048 -0.94384557 -0.10967611 0.44281006 -0.042247634
-0.54282326 0.82894367 -0.43311903 0.2714112 -0.20959066 0.30737343 0.08282956 -0.71493065
0.35117874 -0.12191756 -0.5771536 0.3752366 -0.17109667 -0.106514975 0.7455533 -0.07843832
0.34808394 -0.43785852 0.32959253 0.83053374 0.41696438 0.14906259 0.6890907 0.2395199
-0.18842489 -0.25102538 -0.2124603 -0.15722811 -0.08290418 -0.30227646 -0.55618644 -0.08350868
-0.25959286 -0.758927 -0.33961704 0.61822027 -0.7636482 0.8241331 -0.24752398 -0.35043302
0.2730222 -0.30771822 -1.0161793 -0.080658674 -1.1094726 0.25069606 -0.40295342 -0.2523476
0.38660613 -0.83733386 -0.6991496 -0.012837665 0.32655972 -0.3303157 0.47199026 -0.13020246
-1.2921194 -0.26143 -0.0029348189 -1.487543 0.41183656 0.033319708 0.017099647 -0.0552912
-0.62756014 0.34457368 0.26466346 0.8959533 -0.45470655 -0.118348554 0.1471613 -0.7413291
0.11240183 0.33932352 0.12819637 0.32670137 -0.41461936 -0.18916914 0.8081748 -0.15250354
-0.8985986 0.61653453 1.1577256 0.4707952 0.5512208 0.020110711 -0.046778593 0.7668763
-0.65183306 0.6607313 -0.29549637 1.0635426 -0.45034254 0.036952466 0.22996123 0.14228502
-0.3712262 -0.26872253 0.033818297 0.12037522 -0.51581913 -0.23278098 0.4158416 -0.4242952
0.3680808 0.26568842 0.747784 0.09545206 -0.36758718 0.15471494 0.2853229 -0.8765465
0.026352623 -0.65433526 0.2675797 -0.40079746 0.7274744 1.2252859 -0.46008274 -0.12418369
-0.102177925 -0.34765142 -0.23381375 -0.15616941 0.03923245 -0.20055604 -0.6707101 -0.2794258
1.0530217 0.10567325 0.60333705 -0.24098065 -0.52887315 -0.17010398 -1.3876134 0.1714365
0.026808783 0.6850356 -0.6945557 -0.29783905 -0.33106214 0.6723742 0.12514795 -0.2752208
-0.8479166 -0.21680905 0.26869676 0.7005332 0.54590815 -0.12468589 0.8807449 0.94951046
-0.2579221 0.49506274 0.4629409 -0.05313243 -0.21461092 1.0719488 -1.0246129 0.17564599
0.9987229 0.10860804 -0.57637703 0.34661672 -0.061559577 -0.6821497 0.3857668 0.92865187
-0.43551803 0.027390014 0.053535186 0.29797012 0.031184271 -0.14108807 0.30375743 -0.02006523
0.239375 -0.047061436 0.2723446 0.4839318 -0.07135968 0.5791747 0.058223907 0.4130608
-0.3294943 0.018110968 -1.1835867 0.12191795 -0.4104975 -0.48856574 0.24960494 0.5286383
-0.6664345 -0.54183203 -0.05572494 0.01587501 0.5694902 -0.3304679 0.41464335 -0.041984715
0.08875062 -0.063055426 -0.018844424 -0.016327057 -0.3441195 1.1829628 0.7454971 0.3588395
0.51993626 -0.519922 -0.33374327 -0.05887583 -0.0011011547 -0.18215485 -0.10524019 -0.34311375
0.20974618 0.30962 0.20710135 -0.2716739 -0.3544725 0.21369557 -0.09845746 0.123491555
0.17745298 -0.15520993 0.023553882 0.25616726 -0.30723834 0.5906907 0.08348355 0.36446375

bias_ih_l0 f4 [256]
00000000: f35e 6ebe b367 5f3e d87f eebe ecce 8c3e
00000010: 5a2d 083e 167a c8be 52be 303e a38f 6e3e
00000020: 37f4 c23e a921 e93e 0c6e cb3b 80bf 933e
00000030: 2a04 9d3e 0772 b3be 236c 933e 8bd3 8abe
00000040: 8eae 093e e973 dc3b e209 763d 64b3 203e
00000050: 74f5 593e 3e99 b5bd d35b dbbe 66fd e3be
00000060: 8047 3f3f f7ff 6cbe f86e ce3e 7ce5 6fbe
00000070: efb4 9fbe 40d9 5f3d 380b 51bd 3ac6 17be
00000080: 586c 233f 28cf aa3e 1229 d1be 7eeb 7b3e
00000090: 8677 1ebd f963 44be 5e80 29bd 6245 3c3e
000000a0: ded7 543e 3258 96bb c2ae 913d a97e a1be
000000b0: db55 f9bd 0619 a3be fb4e 373e 37f9 d73e
000000c0: 0232 d23e be14 01be 315c 873e 71a3 f73d
000000d0: a1b1 9cbe ca24 523e fe36 3c3e 8474 3b3c
000000e0: 6c9c 373c 097f a93e 3303 25be 926e 4e3e
000000f0: 310c 9c3d 27a1 733e 23b2 5ebe 66cb 7fbd
00000100: 7c33 7d3b 2fbe 2bbf 4da4 4ebd cf6a 1abd
00000110: bdc6 7cbe 1937 8ebe f321 d5be 09c0 2abf
00000120: 309d efbe e054 18be ecc1 eabe 8535 643d
00000130: 1190 cabd 92b6 073d b402 dcbe 1eeb 2dbd
00000140: 4ff9 b2bd c0a8 efbd 2c6f 87be f9a5 babe
00000150: 1e07 86be 4733 a4be 684c a5be 644f 4abe
00000160: 9e7c 8ebe 6cc3 95be c0e3 25bf 5e27 a2be
00000170: f721 d0be 09e8 f3be 5d84 8cbc 4387 f2be
00000180: 98a8 28bf a002 12be 4712 12bf e06e 13bf
00000190: 6300 8fbe 4479 43be a330 d43d c07d a8be
000001a0: 8758 14be 2689 75be a9f6 0dbf f0bf dcbe
000001b0: ca0e d6bd d203 8ebd c852 9fbe 5825 113d
000001c0: 1f20 dabe bcc0 5b3d 7775 91be b286 20bf
000001d0: bf83 04bd f386 85be 93f5 10be 9a52 263e
000001e0: 1646 7ebe 55a5 97be 89d9 3bbf 7f8e 61be
000001f0: c86c ebbe 5962 94be 42e0 1bbf 66bd 57be
00000200: 540f 08be a72b 363e 6436 1a3e f17b 72bd
00000210: 76b4 0abe 6e03 bb3e 9376 b33d 35f4 babd
00000220: c14c 80be 92ac 8d3e cc9a adbe 2022 f23d
00000230: a9cf acbd 5bd5 0d3f 7d2d 473d 879d 8a3d
00000240: 3799 82bd 9aed 84be 31c3 8abe 9d87 543e
00000250: 8e90 7c3b d01a 393e c9ee 9dbd 9051 51be
00000260: 0b04 dabd 827d df3d c215 be3d 6b35 8abc
00000270: dd49 d3bd 11b6 b0bd 51de bd3d 3cc5 103d
00000280: 1db5 963d 6c09 94be 0697 623d 9300 0cbe
00000290: 18de 013e 5aee 37be 14ff 673e 27f4 39be
000002a0: 3c60 043e b2fc 903d 9d33 353e 921f 60be
000002b0: b043 92bc 668a 313d fb79 e7bc 239f 663e
000002c0: 5e3a a6bd 414d d23c d961 bd3d 845c 183c
000002d0: 0112 953e 9db6 febd edaf 843e ef87 05bc
000002e0: bbe6 733d 679a 1d3e 4ca5 c5bd 4821 6abd
000002f0: 7a8b 823e 53ae 153e 6092 1bbe 6562 bdbe
00000300: a8d0 78be d65d 533d 3492 5fbe fd19 5a3e
00000310: c073 e4bd ac84 1cbe 071b 043e 874b b53d
00000320: 1d2b 913e dc36 bcbe 6a2e 09be 8062 e63e
00000330: 84f8 78bd a686 8dbe 78d7 543d eca3 373d
00000340: ab0d 0a3e 05e1 14be 25e5 84bd 9a12 9ebd
00000350: 96a9 743d 865d 1e3e 6f12 7a3e 3b8d cd3e
00000360: d941 923c 1ea2 dabc 1d3b 493e 8e0b 03bf
00000370: d7e3 90bd f69a cbbd 4139 a8be 52ab febe
00000380: 4766 073e ab98 f93d 13e8 09be 8aa4 023f
00000390: 6d82 5bbe c7c8 113e 8cd3 79be 53b6 cabc
000003a0: d227 513d ed53 633e d921 723c 8e88 3d3d
000003b0: 4808 103e 1738 d53e ccbf 473e a687 11be
000003c0: 3cda f53e 6159 0fbe 0070 17be e74e 0b3f
000003d0: d7e7 34be 12b3 64be 54f5 913c 839e 243d
000003e0: 88e8 16bd 0201 243e 5097 8abe 6b4a 313d
000003f0: 645c 1c3e d80d 8abe 4d81 03be 2390 2abe
-0.23278408 0.21816902 -0.46581912 0.2750162 0.1329855 -0.39155644 0.17260101 0.2329698
0.38076946 0.45533493 0.006208187 0.2885704 0.3066724 -0.35047933 0.2879344 -0.2711452
0.13445494 0.0067276848 0.06006802 0.15693432 0.21285039 -0.08867119 -0.42843494 -0.44529265
0.74718475 -0.23144518 0.40319037 -0.23427385 -0.3119273 0.054650545 -0.05103609 -0.14821711
0.63837194 0.33361173 -0.40851647 0.24601552 -0.038688205 -0.19178762 -0.041382186 0.18385842
0.20785472 -0.0045881504 0.071134105 -0.31541947 -0.12174579 -0.3185503 0.17901222 0.42182323
0.41053778 -0.12605569 0.26437524 0.12091721 -0.3060427 0.20521846 0.18380353 0.011441354
0.0112067275 0.33104733 -0.16114502 0.20159367 0.07619513 0.23791943 -0.21747641 -0.062449835
0.0038635423 -0.6708707 -0.05044966 -0.037699517 -0.24685188 -0.2777641 -0.41627464 -0.6669927
-0.46799612 -0.14876127 -0.45851076 0.055715103 -0.0989076 0.033133097 -0.42970812 -0.042460553
-0.08738958 -0.117021084 -0.26452005 -0.36454752 -0.26177305 -0.32070372 -0.32284856 -0.19756848
-0.2782945 -0.29250658 -0.64800644 -0.3167066 -0.40650913 -0.47637966 -0.01715296 -0.47368822
-0.65882254 -0.14258814 -0.5705914 -0.57591057 -0.27929983 -0.19089228 0.10360839 -0.3290844
-0.14486896 -0.23978099 -0.554545 -0.43115187 -0.104520395 -0.069343224 -0.31117845 0.035436004
-0.4260263 0.053650603 -0.2840993 -0.6270553 -0.032352205 -0.2607952 -0.14156179 0.16242447
-0.24831423 -0.29618326 -0.7337881 -0.22027014 -0.4598143 -0.28981283 -0.60889065 -0.21068344
-0.13287097 0.1779009 0.15059811 -0.05920023 -0.13545403 0.36526054 0.087628506 -0.0912861
-0.2505856 0.27670723 -0.33907163 0.11822915 -0.084380455 0.5540368 0.048627365 0.06768327
-0.0637688 -0.25962526 -0.27102044 0.20754857 0.003853831 0.18076634 -0.0771156 -0.2044127
-0.106453024 0.109126106 0.09281494 -0.016871175 -0.10316823 -0.086284764 0.09270919 0.035344347
0.07358763 -0.28913438 0.05531981 -0.13672094 0.12682378 -0.17962018 0.22655898 -0.18159543
0.12927336 0.07079448 0.1769547 -0.21887043 -0.017854542 0.043344878 -0.028256407 0.22521643
-0.081166014 0.025671603 0.092471786 0.009299401 0.29115298 -0.124371745 0.2591547 -0.008150085
0.059546214 0.15390931 -0.096506685 -0.057160646 0.25497037 0.1461728 -0.15192556 -0.36989132
-0.24298346 0.05160316 -0.21833116 0.21298976 -0.1115489 -0.15284985 0.12900935 0.08852296
0.28353205 -0.36760604 -0.13396612 0.44997025 -0.060783878 -0.2764179 0.0519633 0.044834062
0.13481776 -0.14538963 -0.06489018 -0.07718392 0.059732042 0.15465364 0.24421094 0.40146813
0.017853664 -0.026688632 0.19651456 -0.51189506 -0.07074707 -0.09941666 -0.3285618 -0.49740082
0.1322261 0.12187322 -0.13467436 0.51032317 -0.21436472 0.14236747 -0.24397105 -0.024745142
0.051063366 0.22199984 0.014778578 0.046272807 0.14065659 0.41644356 0.19506758 -0.14211902
0.48018062 -0.13998939 -0.14788818 0.5441727 -0.17666565 -0.22333935 0.017817177 0.04019023
-0.036842853 0.1601601 -0.27068567 0.04328386 0.15269619 -0.26963687 -0.12842293 -0.16656546

bias_hh_l0 f4 [256]
00000000: 340d 94be e87f 623e 692f ebbe f294 6a3e
00000010: a7f5 6b3d 0bdf 8cbe 47f6 803e 6907 b53e
00000020: fdc0 a73e 0bdf cf3e 263d 053e 1c8d 8c3e
00000030: 614c ba3e 1022 dcbe 920c db3e e810 5bbe
00000040: 49f4 aa3d 34f0 0a3e 9a9f 893b b91e 0d3e
00000050: e36c 973e 2edd c4bd 7ebb bfbe 11e7 d4be
00000060: 9166 523f d4d2 8fbe 29d1 ac3e cd27 79be
00000070: 93ad 7dbe ac4d 0b3e facb 52be 694b 2bbe
00000080: a2e4 063f 1edd 073f 08b6 bcbe e2ec c73e
00000090: 034d d0bd ee7f b1be 42f0 ebbc 33cd 933d
000000a0: a031 a13e 8dfd 323e 5a10 f0bd b831 c3be
000000b0: a540 dfbd 5725 e5be e49a 053e 7bb5 c13e
000000c0: 9a94 933e 9b57 78bd ebe5 d73e 7d4b 493c
000000d0: 8ef4 adbe bd8a 783e e682 723e 40f2 213e
000000e0: 3572 f3bd 6f7a 743e 9ca0 9bbe 977b a73d
000000f0: cf2b 283d 5308 763e 3342 f7bd b642 82bd
00000100: 66bf d6bd 97ce 1fbf fc08 573a 9321 dbbd
00000110: 3075 37bd 4a8a 39bd 63a1 e4be 34a4 57bf
00000120: 6038 aebe e5ca 9fbd 5ce4 7cbe c90a b83d
00000130: e8a4 9abe e093 40be f456 85be a936 e5bd
00000140: c7a4 3fbe 2f52 04be ab74 8fbe 1ef1 cdbe
00000150: a4c7 9dbe deb3 c4be 5031 70be ecdd 6fbd
00000160: 0151 07be c9a7 7bbe aafd 35bf 387a a0be
00000170: b025 acbe 7d82 f5be 645f fc3c 66fb 77be
00000180: 3be5 33bf 5334 8cbe 1a78 0bbf 860b 3abf
00000190: e09c 26be fbea 5dbe 39bd bcbc 0640 6fbe
000001a0: 269a 45bd 6943 31be da9a 10bf c655 98be
000001b0: 89cd 96bd 31d1 cebb ceea 82be e636 d8bd
000001c0: 3e94 d7be 9cb9 a9bd 3f3d aebe d3d1 2abf
000001d0: 3637 c3bd 308f 7dbe 9063 953c cb78 7fbd
000001e0: 95c2 52be 3d86 65be c535 00bf 8cf9 94be
000001f0: c9ce e8be ac14 8fbe cb31 12bf aaf1 78be
00000200: d595 babd c7c6 c93e 4598 e23d 0389 abbd
00000210: c4e7 843d ff0a 293e cdda 1f3e a5c2 f43c
00000220: 12c1 dcbe 92bc f23d e84b 92be e336 203b
00000230: 91dd b23d a2bb e03e 56b4 8dbd 2248 0cbe
00000240: bb61 61bc a70e 34be 14cf 37be fbc8 1c3e
00000250: 146d 5e3d 3e77 f13d 0239 963d 5ed5 05be
00000260: 7d29 d3bd 42b8 02bd 9d65 c5bd f7dd e6bb
00000270: eba2 5f3c 67f0 4bbd abdb 83bc 0d48 61bd
00000280: 54a2 f0bd eb84 9bbe c841 963c db79 a0be
00000290: 6b59 bd3b fac1 4fbe 869e 3a3e 7a42 5cbe
000002a0: 3d38 753b 6d0a ae3d 056b 943e afbf 68be
000002b0: f222 093a 2da1 fb3c 1a69 dcbc 928e 543e
000002c0: ece2 99bc 5212 6ebc 691d c53c e875 c4bd
000002d0: 7df9 943e 51d8 563d 1883 f63d 0691 cdbc
000002e0: bfc9 2f3e 1275 2e3e 0e8f 023d b5be 6f3d
000002f0: 8127 bc3e 2fbd 7fbd 6b59 72be 879b 50be
00000300: d98c bbbd f6a1 bf3d 901f 2bbe a285 653e
00000310: 24f0 37bd e5a2 1abe f011 6a3e 9d32 6b3d
00000320: a64d 7a3e f3a6 b4be 367c 57bd dae9 f03e
00000330: 9162 e03d 0af3 cfbe a354 183e c62f 7abd
00000340: d309 e03d 97a3 18be 03af 8c3d e3a9 f93d
00000350: 79e5 873e d9de c83c ac35 503e 96fb 683e
00000360: b690 88bc 44fe 41be 9d65 b93d 8e46 13bf
00000370: af1b 02be f810 cabd b45a c3be f432 0dbf
00000380: 3d10 a53e b6f3 7a3d 0264 74be 0809 203f
00000390: b8b1 51be 9713 333e b5d9 e2bc 1cc7 30bd
000003a0: 18ac 323d c69a 593e 8c43 45be 3064 9b3c
000003b0: fdb9 133e ba76 0c3f 22d0 a53e 102c bbbc
000003c0: 6297 e33e 5887 5dbe a829 163d f60d f63e
000003d0: b250 51be 6f90 02be 8f51 033d d6f2 803c
000003e0: 6145 26be 0b92 a43d 2581 babe 9506 a7bd
000003f0: ba6a 143e ca61 59be 93df eabd 59fd 0bbe
-0.28916323 0.22119105 -0.4593461 0.2290838 0.05760732 -0.27513918 0.25187895 0.35357216
0.32764426 0.40599856 0.13011608 0.27451408 0.36386397 -0.42994738 0.42783028 -0.21393168
0.08347375 0.13568193 0.004199934 0.13781251 0.2957526 -0.09612499 -0.37447733 -0.4158254
0.82187754 -0.28090537 0.33753327 -0.24331589 -0.24773245 0.13603848 -0.20585623 -0.16727985
0.52692616 0.53071773 -0.3685763 0.39047915 -0.10170939 -0.34667915 -0.028801087 0.07216873
0.31483173 0.17479534 -0.11721869 -0.3812387 -0.10901002 -0.4475505 0.13047367 0.3783377
0.28824311 -0.060630422 0.421676 0.012286064 -0.33975643 0.24271674 0.23682746 0.15815067
-0.11887018 0.2387483 -0.30395973 0.0817787 0.041057404 0.24026613 -0.120731734 -0.0636038
-0.10485725 -0.62424606 0.0008202938 -0.10699763 -0.044789493 -0.0452979 -0.44654378 -0.8423493
-0.34027386 -0.07802371 -0.24696487 0.08986432 -0.30203938 -0.1880641 -0.26042902 -0.11192066
-0.18715201 -0.12921976 -0.28018698 -0.4022302 -0.30816376 -0.38418478 -0.23456311 -0.05856125
-0.13214494 -0.24575724 -0.71090186 -0.31343246 -0.33622503 -0.47951117 0.030807205 -0.24216995
-0.7027165 -0.2738367 -0.54480135 -0.72673833 -0.1627078 -0.21671669 -0.023039447 -0.23364267
-0.04824271 -0.17310871 -0.56486285 -0.2975294 -0.073634215 -0.0063115587 -0.25569767 -0.10557346
-0.42105287 -0.08287355 -0.34031102 -0.66726416 -0.09532015 -0.24761653 0.018235952 -0.062371057
-0.2058204 -0.22414489 -0.50082046 -0.2909664 -0.45470265 -0.2794546 -0.5710723 -0.24310938
-0.091106094 0.39409468 0.11064199 -0.08375742 0.06489518 0.16508101 0.1561081 0.02987797
-0.4311605 0.11852373 -0.28573537 0.0024446778 0.08733667 0.43893152 -0.06919162 -0.13699391
-0.013756211 -0.17583714 -0.17950088 0.15311043 0.054303244 0.11790322 0.07335092 -0.13069674
-0.10310648 -0.031914003 -0.09638522 -0.0070455032 0.0136496825 -0.049789812 -0.016095957 -0.055000354
-0.11749712 -0.30374846 0.018341914 -0.31342968 0.0057784817 -0.2028884 0.18224534 -0.21509734
0.0037417554 0.08498082 0.289879 -0.22729371 0.00052313425 0.030716503 -0.026905585 0.20757511
-0.018784963 -0.014530735 0.024061875 -0.09592801 0.29096594 0.05245239 0.12036723 -0.025093567
0.17166804 0.17036846 0.03187471 0.05853148 0.3674889 -0.06243628 -0.23666923 -0.20371829
-0.09157724 0.093570635 -0.16711259 0.22414258 -0.04490675 -0.15101202 0.22858405 0.057421315
0.24443683 -0.35283622 -0.05260869 0.47053415 0.109563 -0.40615112 0.14876036 -0.061080717
0.10939374 -0.14906155 0.06869318 0.121906064 0.2654226 0.024520325 0.20332974 0.22752222
-0.016670566 -0.18944651 0.09052584 -0.5752953 -0.12705873 -0.09866518 -0.38155138 -0.55155873
0.3223895 0.061267577 -0.23866275 0.6251378 -0.2047795 0.17487942 -0.027691701 -0.043158635
0.043621153 0.21250448 -0.19264048 0.018968672 0.14426418 0.5486866 0.32385355 -0.02284816
0.44451433 -0.21633661 0.03666082 0.48057526 -0.20440939 -0.1275041 0.032060202 0.015740793
-0.16237403 0.08035668 -0.36426654 -0.08155552 0.14493838 -0.2122871 -0.11468425 -0.13670863
