deploy/pre_train/g1_14dof/policy_1.pt (torch, 33568 bytes, 6 tensors)

weight f4 [64, 53]
000000 94 69 28 bf b5 43 08 3f 22 b6 6d bf ba f1 3e 40
       -0.657861 0.5322831 -0.9285604 2.9835038
000010 19 5f f0 bf dd ac e2 3d cc 36 fb 3e 2a f1 82 3e
       -1.8779022 0.11068127 0.49065244 0.2557462
000020 28 f5 38 be 9e 95 2d 40 06 67 12 40 34 e5 d9 bf
       -0.1806227 2.712257 2.287538 -1.7023072
000030 8b ea ff be da 24 b5 3f 48 5a a0 be 70 d0 14 3f
       -0.4998363 1.4151871 -0.3131888 0.5813055
000040 1a eb a1 bf 31 a2 1f 3e 0d 4a 48 3e b8 17 4a bd
       -1.2649872 0.15589215 0.19559498 -0.049339026
000050 86 6d 89 3f 3e b9 13 3f d0 11 d6 3e 9a b8 28 40
       1.0736549 0.5770453 0.41810465 2.6362672
000060 8c 0e 83 be d9 65 f8 3e c7 0c 40 3f a4 bb a8 3f
       -0.25597036 0.48515204 0.75019497 1.3182263
000070 e8 fb 32 bd 15 22 05 3e 2a 2e b3 3e 31 ec c2 bd
       -0.043697268 0.13001283 0.34996158 -0.09517706
000080 b0 20 6e bf 5b 68 88 3f 75 66 d0 bf 95 57 d5 be
       -0.9301863 1.0656847 -1.6281267 -0.41668382
000090 3e ef 7d bf 04 55 68 be 49 6b de be b0 1d a3 3e
       -0.9919318 -0.22688681 -0.43441227 0.31858587
0000a0 d5 36 48 3f 9c 86 ac be 40 43 9a bd aa c5 77 3c
       0.7820867 -0.3369645 -0.07532358 0.01512281
0000b0 f7 a8 3c 3e ad 4b 93 be c2 e9 a7 3e 5e b8 d6 bd
       0.1842383 -0.28768674 0.3279553 -0.10484384
0000c0 7b c2 52 3e 8b 76 57 3c db 07 f9 bb 6a d7 a0 bf
       0.20582001 0.013150821 -0.0075998134 -1.2565739
0000d0 29 27 cc 3e c0 76 6d 3f e0 1e 75 be 73 7c db 3d
       0.39873627 0.92759323 -0.23937559 0.10717096
0000e0 c4 6c b1 bf dd 5f 0b c0 d7 5f 81 3f 41 2c 71 3e
       -1.3861318 -2.177726 1.0107373 0.23552038
0000f0 b1 03 a3 3e ef 1b 1c 3e 8f d2 d9 be 5c e4 d7 be
       0.31838754 0.15245031 -0.42543456 -0.42166412
000100 50 56 62 3f 28 bb 3f 3e 6f ff 05 c0 2a d3 2f 3f
       0.8841295 0.18723738 -2.0937154 0.68681586
000110 60 e3 21 3f 97 e8 28 3f 97 89 07 bf da ce 54 bf
       0.6323757 0.65979904 -0.5294432 -0.8312813
000120 11 e8 a8 3f 28 f8 4d 40 e5 f4 82 bf 43 ac 51 3f
       1.3195821 3.2182713 -1.0230986 0.81903476
000130 7b 93 40 bf a4 20 53 3f 9d 9b 53 bf 91 3f a9 3f
       -0.7522504 0.8247168 -0.8265932 1.3222524
000140 d0 9a fb be 58 b1 23 bf 38 a5 1d 3f 9b cb ce 3d
       -0.4914155 -0.6394248 0.6158023 0.100974284
000150 84 cb 4b bf 35 92 25 bf a3 0c 8a 3e e5 08 b3 3e
       -0.79607415 -0.6467622 0.26962766 0.34967723
000160 76 b4 72 3e 8f 02 9a bf ba 15 8a bd 33 1f 03 3f
       0.23701653 -1.2032031 -0.06742425 0.5121948
000170 14 f4 4f bf 2b 8f 44 3e bb af 85 3c b5 39 17 3e
       -0.8123181 0.19195239 0.016319146 0.14768107
000180 b5 0d ce 3a 3b d5 37 3e 12 a3 cd bd 72 fa 83 be
       0.0015720638 0.17952435 -0.10040869 -0.25777012
000190 46 1d 30 be ab b1 a1 be da c6 df bd 32 d8 ea ba
       -0.17198667 -0.31580862 -0.109266 -0.0017917214
0001a0 50 a9 13 3f 24 fc 21 bf 48 6e c4 bf 00 d6 96 3f
       0.57680225 -0.6327536 -1.5346155 1.1784058
0001b0 4f 97 14 bf 5a bf 3d 40 7a 69 2a 40 99 01 b6 3e
       -0.5804338 2.9648042 2.6626878 0.35548094
0001c0 26 89 48 be 95 bb 53 be 02 88 e9 3e a2 c1 04 c0
       -0.19583568 -0.20677026 0.45611578 -2.0743184
0001d0 a3 a0 45 bf 73 79 b9 3e 90 02 05 bf f2 42 91 bf
       -0.7719824 0.3622547 -0.51957035 -1.1348555
0001e0 36 02 6c be fd a0 d5 3e b8 13 ab 40 d5 be 56 c0
       -0.23047718 0.41724387 5.346157 -3.3553975
0001f0 27 28 3d 3f c7 bf 11 40 c1 5e 0b 40 9c ae 46 be
       0.7388939 2.2773302 2.1776583 -0.19402546
000200 e2 f7 64 3c f1 73 81 3f dd 1a 01 bf 0e a2 8b be
       0.0139751155 1.0113508 -0.50431615 -0.27272075
000210 42 25 03 3f 9a 8f 30 bf 3b 5e 9d be 6c 4c b8 be
       0.51228726 -0.6896912 -0.30735955 -0.35995805
000220 fa 02 db 3e bc 8d 06 c0 2c b2 6a 3d 35 e9 87 3d
       0.42775708 -2.1024008 0.057298824 0.066362776
000230 17 b5 a2 be 08 c0 53 be 7c b9 0c 3e e4 fe 08 3e
       -0.31778786 -0.20678723 0.13742632 0.13378483
000240 3f 76 3b be 79 a4 23 be 91 bc 76 be af 0a 5e 3e
       -0.18306826 -0.1598071 -0.2409537 0.21683763
000250 c3 2f 29 3d 26 69 96 bb 22 ea 01 3d 0b ae 77 bc
       0.041305315 -0.0045901714 0.031717427 -0.015117179
000260 fb 4c f7 bb 19 4e 8f 3d 7c 48 e0 3c 92 5b 41 3d
       -0.0075470186 0.06997318 0.027378313 0.04720647
000270 91 53 70 3c cc 60 87 3f ec 30 e5 3f 10 d0 07 bf
       0.014668361 1.0576415 1.7905555 -0.53051853
000280 a0 6f 26 3e 5e 40 6b 3f 31 af 44 3f ad 50 e4 3f
       0.16253519 0.9189509 0.7682982 1.783712
000290 53 84 ad 3e ce b8 05 be df 09 ef bc 18 04 f9 bf
       0.33890018 -0.13058779 -0.029179512 -1.9454374
0002a0 b1 04 08 3f a0 8c 2e 40 1c 9d 4d be c4 67 7b be
       0.5313216 2.727333 -0.20079464 -0.24551302
0002b0 a0 ed 3c be d4 25 ba bd 0a 92 e6 be e9 fc 0b bf
       -0.18450022 -0.090892464 -0.45033294 -0.54682785
0002c0 b4 d0 69 c0 9d 02 a1 be 84 69 6c bf cb b5 04 bf
       -3.6533632 -0.31447306 -0.92348504 -0.51839894
0002d0 2d 96 a0 3e 3c ec cd 3d ce ca 27 3e 7f b3 ef 3f
       0.31364575 0.10054824 0.16385958 1.8726653
0002e0 49 de da be 08 28 ca be 4f 37 b6 be 4c 5c 95 3e
       -0.42747715 -0.39483666 -0.35589072 0.2917198
0002f0 48 8c 60 be 2f d1 a1 bf 97 c0 61 c0 37 b1 95 3f
       -0.21928513 -1.2641963 -3.5273798 1.1694707
000300 cb 44 a5 bf f9 e5 83 3f ac bc d4 3e 9b 9d 5f 3f
       -1.2911619 1.0304557 0.41550195 0.8734986
000310 79 02 86 3e 95 3b b1 3e e7 20 b6 bd 08 5b ba be
       0.2617376 0.3461577 -0.088929944 -0.36397576
000320 9b 33 1a 3e 08 4d 7b 3d 72 01 69 3b c4 75 fa bd
       0.15058748 0.06135276 0.003555384 -0.12229493
000330 08 41 11 3e 96 14 a3 be ea 62 02 3f 7e c0 9e be
       0.14184964 -0.31851643 0.5093218 -0.31006235
000340 a1 3c 16 3d f8 c1 58 ba 74 bf d1 3f c3 1d f5 be
       0.036678914 -0.00082686497 1.6386552 -0.4787427
000350 63 31 68 bc cd 28 9e 3f 05 70 4e bf b8 bb aa 3f
       -0.014171931 1.2356201 -0.8063968 1.3338537
000360 1b f8 55 3f eb b8 47 3f 93 41 56 be e5 1e e9 bd
       0.83581704 0.7801654 -0.20923452 -0.11382846
000370 1e 2d 4c 40 23 4c 72 bd a6 69 9d be c7 22 d6 bf
       3.1902537 -0.05915464 -0.30744666 -1.6729363
000380 ca b2 d4 3f 41 1b 0d bf c3 63 af be d8 dd 59 3d
       1.6617062 -0.5511971 -0.342558 0.053190082
000390 e2 74 10 3e 67 28 b8 3e 64 25 41 3f 91 41 4c 3f
       0.14107087 0.35968325 0.7544768 0.79787546
0003a0 d3 d7 52 3f 1b 48 7b 3e b9 06 0f c0 11 d7 82 3f
       0.8236057 0.24539225 -2.2347853 1.0221883
0003b0 82 74 94 3e 88 47 5f be 5f be 70 be f2 0d d1 3d
       0.28995138 -0.21804631 -0.23510121 0.10207738
0003c0 ea 01 11 3f c8 ce 66 3f 48 dd 4e 3d aa 27 d4 3f
       0.56643546 0.90159273 0.050504 1.6574605
0003d0 5f 72 45 bf d1 f2 d6 be ee 9a 68 3d ca 43 90 3e
       -0.7712764 -0.4198213 0.056788377 0.2817672
0003e0 30 fe 1e c0 b2 b8 ba 3d f7 5c de 3d 39 fe 1c be
       -2.4842644 0.09117259 0.108575754 -0.15331353
0003f0 c0 b3 79 be 21 65 d9 3d 9c 2d ba 3d 38 18 c0 3a
       -0.24384975 0.10614992 0.090907305 0.0014655655

bias f4 [64]
000000 13 1d 9c 3e 23 c9 c9 bf cd 70 9e be 5c 04 c4 bb
       0.30490932 -1.5764507 -0.30945435 -0.005981965
000010 1e 26 9f be 3e b0 a1 3e e2 f2 5f be fe a3 c4 bd
       -0.3108377 0.31579775 -0.21869996 -0.096015915
000020 e3 45 b7 3e 89 32 43 bf 61 fa 13 3d 09 b6 06 3d
       0.35795507 -0.76248986 0.03612745 0.032888446
000030 b2 46 ae be 32 eb 73 be 24 8d 3c bf b3 af d8 bd
       -0.3403831 -0.23820189 -0.73652864 -0.10580387
000040 e2 79 2a bf 01 9d 1e 3f 29 8c 13 3f 42 e8 1d be
       -0.6659223 0.6195832 0.5763574 -0.1542063
000050 c1 14 38 be 1f de 33 be 99 03 ae be eb c9 6b 3e
       -0.17976667 -0.17565201 -0.3398712 0.23026244
000060 57 e4 2e bf 2b 10 7e 3e 3d 1f 1a bf 7e d8 4d bc
       -0.6831717 0.24810855 -0.60203916 -0.012563823
000070 cc cc 05 bf 0d 6a 00 bf 72 65 65 bf 15 00 05 bf
       -0.5226562 -0.5016182 -0.8960792 -0.5195325
000080 00 c6 eb be 42 68 74 be 89 48 69 bd d4 15 7c 3e
       -0.460495 -0.23867896 -0.05695394 0.24617702
000090 cc 43 23 bf c2 82 10 bf b8 fe f6 3c 95 68 84 be
       -0.63775325 -0.5644952 0.030150756 -0.2586104
0000a0 93 5c 4e bd 09 99 15 bd bd a8 79 be 03 08 a3 3e
       -0.050381254 -0.0365229 -0.24380775 0.3184205
0000b0 24 eb 22 bf 93 31 95 be 38 bd 07 bf d2 d4 20 3f
       -0.63640046 -0.29139385 -0.530231 0.6282474
0000c0 13 6c 79 be c5 0a 6f bf 62 ed 81 be b4 1c 9d be
       -0.24357633 -0.9337581 -0.2537642 -0.3068596
0000d0 17 32 38 bf ec e3 7b bd 35 7f 24 3d e9 c0 fc be
       -0.7195143 -0.06149666 0.040160377 -0.4936593
0000e0 c7 f7 80 bf 53 b1 13 bf af e3 4f 3d fd ae 4a bd
       -1.0075616 -0.5769245 0.050754245 -0.049483288
0000f0 7b 70 a4 be 97 53 cd be a9 f6 5d 3e b1 a0 8d bf
       -0.32117066 -0.40102836 0.21676125 -1.1064664

weight f4 [32, 64]
000000 af 92 9c bd 28 ca 74 be bb f4 d9 3c d7 0c 0f 3d
       -0.07645165 -0.23905241 0.026605954 0.034924354
000010 43 23 bf bd 02 3c 29 3e 0a d9 33 bd 0a e8 21 3e
       -0.093328975 0.16526797 -0.043908156 0.15811172
000020 ef c8 df 3e 44 f5 23 3d 51 45 17 3f 52 d2 05 3d
       0.43707988 0.040028825 0.59090143 0.03267128
000030 ff 36 6a bd 48 6a 39 3e 0d d5 bb bd d9 7d b2 3d
       -0.057181355 0.1810695 -0.091714956 0.0871541
000040 ed 94 6f be 89 91 cc 3e 9c 9d bb 3e 9d 1f f5 be
       -0.23396654 0.39954785 0.36643684 -0.47875682
000050 e1 53 4e bd b2 09 2d 3c 58 b6 1f be 09 b5 12 3f
       -0.050372962 0.010561394 -0.15596902 0.5730749
000060 3a 87 e1 3d 63 e0 00 3f 1d 90 74 be dd 5f f0 bd
       0.110121205 0.50342387 -0.238831 -0.117370345
000070 ab d8 5d be e8 ba 42 3d 7f b7 9a be 94 06 09 be
       -0.21664684 0.04754153 -0.3021812 -0.13381416
000080 29 dd c8 3d 9a 3e 9c bd a3 74 b8 3d c8 0c 22 3e
       0.09807808 -0.07629128 0.09006622 0.15825188
000090 a8 6b 6a bd 5d 53 cd be dc eb 34 3e eb 70 8f 3c
       -0.057231575 -0.40102664 0.17668098 0.017509898
0000a0 d0 89 34 be dd 76 15 be 10 89 98 bc 7e 89 96 3c
       -0.17630696 -0.14596124 -0.018620044 0.018376108
0000b0 80 63 46 be a0 d2 33 be d9 41 07 be 0a 33 88 3e
       -0.19373894 -0.17560816 -0.13208713 0.2660144
0000c0 61 25 85 be eb a6 0b bc 95 a4 26 3e 9c 1d 17 bf
       -0.2600508 -0.008523683 0.1627372 -0.59029555
0000d0 08 77 68 3d 29 58 6a be f6 d1 93 3e 10 eb 43 be
       0.056754142 -0.22885193 0.28871125 -0.19132638
0000e0 85 25 ed bd 76 01 bd bb b4 8d 20 3e 43 01 38 3f
       -0.11579422 -0.0057679964 0.15679055 0.71876925
0000f0 a5 15 95 bd 3d 84 44 3e fb ad 9b 3d f3 a4 c3 be
       -0.07279519 0.1919107 0.076015435 -0.38211784
000100 b8 4d 8c be 32 81 10 3f db db 85 be 91 ea 92 be
       -0.27403045 0.56447136 -0.261443 -0.28694585
000110 57 1c 69 be f5 47 f5 bd 53 1a 89 bd 7b e9 d4 3e
       -0.22764717 -0.11976615 -0.06694474 0.4158438
000120 ad 78 cb 3e cc 63 1d 3f 5d 82 34 3d d0 99 2b 3f
       0.39740506 0.614804 0.044069637 0.67031574
000130 67 bb 97 3d b9 bd a0 3d 9e 03 01 bf 08 31 eb 3d
       0.07408791 0.07848687 -0.50396144 0.11483961
000140 d5 b1 02 3e de 36 84 3d cd f4 1e 3e 65 e8 42 be
       0.1276315 0.064557776 0.15523072 -0.19033964
000150 21 58 0a bd 09 98 e5 bd 7e fe 1d bf 4f 28 08 bd
       -0.033775453 -0.11210639 -0.6171645 -0.033241566
000160 0d ea 2d be 30 63 1f be dc 20 2b bf f1 d7 a5 be
       -0.16983815 -0.15565181 -0.66847014 -0.32391313
000170 40 c1 89 3e 43 08 32 3e c6 ad 99 be 9c 15 14 bf
       0.2690525 0.17385964 -0.3001539 -0.57845473
000180 09 48 9f 3e ca f3 ed 3e 53 8a 8d 3e 36 c7 a9 bd
       0.31109646 0.4647506 0.27644596 -0.082899496
000190 c6 60 f6 3e ab 68 12 bd 53 c3 30 3e 8a 21 fb bd
       0.48120707 -0.03574435 0.1726201 -0.122622564
0001a0 cb 90 d6 3e cc 55 66 3e b4 95 90 bb bb f4 6a 3e
       0.41907343 0.22493666 -0.0044123773 0.2294492
0001b0 29 10 a4 3e f6 fa 69 3d b0 17 13 be 44 90 51 bd
       0.3204358 0.0571241 -0.14364505 -0.051162973
0001c0 ea 6d db be 0c 4b bc 3c ce 65 23 3e ec 59 46 3d
       -0.42857295 0.022985004 0.15956804 0.0484256
0001d0 68 ac 93 3e c2 65 f4 3d 6d da a2 3e d8 3b 40 3e
       0.28842473 0.11933471 0.3180727 0.18772829
0001e0 25 6d 26 3c 49 44 9a bc 09 3b 0d 3e b6 64 28 be
       0.010157858 -0.018831389 0.13792051 -0.16444668
0001f0 6e 9f 05 bf 82 c6 61 bd 29 6f 00 bf 2e 4d 2d 3e
       -0.52196395 -0.055120952 -0.50169617 0.16923973
000200 52 aa db 3e 7b e1 72 3e bb 20 d7 be 3f 61 e9 be
       0.42903382 0.23718826 -0.4201716 -0.45582005
000210 77 57 de be 13 f6 e1 3e df f9 84 be 43 28 04 bd
       -0.43426105 0.44133052 -0.25971887 -0.03226496
000220 da 08 57 bf fa 30 a7 be fa 8a 94 be e7 1b 29 bb
       -0.8399788 -0.32654554 -0.2901228 -0.0025803985
000230 52 0b f2 3e 3d 14 76 3e 24 a1 0e 3e 79 b8 1a bf
       0.47274262 0.24031158 0.13928658 -0.6043773
000240 1f 69 b5 3e da 3f 80 be 02 d3 70 3e a2 8c a0 3e
       0.35431764 -0.25048715 0.23517993 0.31357294
000250 0e 32 06 bf 18 c1 c3 bd ce 34 9c 3e 78 19 09 3f
       -0.5242013 -0.09558314 0.30509037 0.5355449
000260 f1 c5 a4 bd ca 6d d7 be b6 b9 79 3e 1f 07 44 3c
       -0.08045567 -0.4207595 0.2438725 0.011964588
000270 a7 30 b7 3e e0 7e 02 bf d5 0a 39 3f f7 21 e9 3e
       0.35779306 -0.50974846 0.72282153 0.45533726
000280 e5 21 db 3d 70 3b d6 3c 1c 04 26 bf 38 cc e7 3e
       0.10699824 0.026151389 -0.6485002 0.45272994
000290 3b 71 87 3d b2 6b af bd 87 d2 28 be fc 3f b7 bd
       0.06613394 -0.08565463 -0.1648656 -0.08947751
0002a0 84 60 00 bf 5c ac 37 be 07 e3 dc 3c ce 02 b2 be
       -0.5014727 -0.17936844 0.026963724 -0.34767765
0002b0 6b 76 a2 3e ec 4e 29 bf b7 52 a3 3e a1 23 58 be
       0.3173097 -0.6613605 0.31899044 -0.21107341
0002c0 c6 af 03 ba c3 ee a6 3e 38 70 a8 be ba 9b fd ba
       -0.00050234457 0.32604036 -0.32898116 -0.0019348778
0002d0 58 83 87 bd f7 a8 84 3f 54 cb 1f 3e e0 39 2e 3e
       -0.06616849 1.0364064 0.15604907 0.17014265
0002e0 4f f4 76 be 86 c8 85 bd 48 51 86 be a5 e8 c3 3d
       -0.24116634 -0.065323874 -0.26233888 0.09565858
0002f0 8d 14 94 be c0 c2 0c 3e 89 c6 21 bd 30 39 07 3e
       -0.2892193 0.13746166 -0.03949598 0.13205409
000300 97 b8 41 bf d4 0a 9d be ee 61 b8 be 4f 1b ba 3e
       -0.75672287 -0.30672324 -0.36012214 0.3634896
000310 b2 33 7f 3f 31 32 94 3e 7d e3 11 bd be 4f 20 bf
       0.99688256 0.28944543 -0.03561734 -0.62621677
000320 39 06 a9 be 96 3e 23 3f 22 10 ec 3e 07 7c 3b bf
       -0.3301256 0.63767374 0.46106058 -0.73236126
000330 2b 75 f7 be 93 62 50 3e 1e 74 d4 be 4f 09 20 3e
       -0.4833158 0.20350103 -0.4149484 0.15628551
000340 b5 97 12 3f 38 f2 80 bf 52 36 d6 bd 8b ec 07 3e
       0.57262737 -1.0073919 -0.104595795 0.13273828
000350 bc 25 45 3f ce 3f 00 bf f3 76 cd bb c9 e7 52 bf
       0.77010703 -0.5009736 -0.0062702834 -0.82384926
000360 ed 81 ee 3d 66 fd 52 be bc d6 32 3f 98 8b da 3c
       0.11645875 -0.20604476 0.6985891 0.026677892
000370 0c c7 bf 3f 6a 72 21 be 9c fb 1d 3e 60 22 09 3e
       1.4982619 -0.15766302 0.15428013 0.1339202
000380 c2 31 0d 3d 08 c3 6a 3d 20 f5 cd bf 57 d2 4a bf
       0.03447128 0.057314903 -1.6090431 -0.79227203
000390 5c f3 58 be 96 2d a3 3f c9 6b fb be 8a 18 b5 be
       -0.21186584 1.2748287 -0.4910567 -0.35370284
0003a0 f7 d3 0c bf 55 18 14 3e 48 8b 74 bf 19 97 a3 3d
       -0.5501093 0.14462407 -0.95525026 0.07987804
0003b0 26 c9 10 be 70 6c e6 3e 9f 3a 9a 3f a3 44 df be
       -0.14139232 0.45004606 1.204914 -0.43607053
0003c0 c6 98 65 be 96 08 3f 3f 07 ac 44 3f 2a c6 f0 3f
       -0.2242156 0.74622476 0.7682499 1.8810475
0003d0 db ab 01 bd cb f5 5d bf a5 6e 9f 3f 1d ef 26 3f
       -0.031658035 -0.86703175 1.2455641 0.6520861
0003e0 9b 81 70 3f 3d 01 40 3e 42 3d 8a bf f8 5b 8c bf
       0.9394776 0.18750472 -1.0799944 -1.0965567
0003f0 a4 68 65 3f 9f 3d 1c bf a7 82 5d bf 77 d9 bc 3e
       0.89612794 -0.61031526 -0.86527485 0.36884663

bias f4 [32]
000000 98 59 af 3e 39 b6 fb be 86 6b a9 be 9b fc 8f bf
       0.34248042 -0.49162462 -0.33089846 -1.1248964
000010 4c 08 48 bf bb 60 0d bf 6f 60 58 be 60 95 95 3c
       -0.7813766 -0.55225724 -0.21130536 0.018259704
000020 22 fb 62 be c4 ab 2c 3e 11 c0 54 bf 18 a2 01 be
       -0.22166112 0.16862398 -0.8310557 -0.1265949
000030 38 f2 9c 3c 37 7c 9d be 60 01 c8 be 38 96 b6 be
       0.019158468 -0.3075883 -0.3906355 -0.35661483
000040 58 67 1f 3e 88 88 3f be 33 d1 57 be 5f 64 94 3c
       0.15566766 -0.18704426 -0.21075897 0.018114267
000050 77 e5 e9 3e bc 9a 1d bf fd 3a 0a be 26 e6 b7 bd
       0.4568288 -0.6156423 -0.13499065 -0.08979444
000060 4d 75 02 bf 7d ba 1a bf c2 db 2d bf 26 91 e1 bd
       -0.50960237 -0.6044081 -0.6791345 -0.11014013
000070 52 c1 ee 3d e2 df 75 be ee 48 98 bf a6 a3 39 3f
       0.11657967 -0.24011186 -1.1897256 0.7251533

weight f4 [14, 32]
000000 bb 33 15 3d e4 3b 87 3e 0c 63 72 3d 70 a3 8e bd
       0.036426287 0.2641288 0.05917649 -0.06964767
000010 17 ec d2 3d fb 27 ce bd 01 1f 4a be 13 bd 53 be
       0.10298937 -0.100662194 -0.1973839 -0.20677595
000020 16 88 44 bc 9e c7 0f be 0f 27 fa bd 60 79 73 3d
       -0.011995336 -0.14040992 -0.12214481 0.059441924
000030 51 b6 51 bd 5a f2 06 bd 5c 52 e2 3b 98 8e 11 3d
       -0.05119926 -0.03294597 0.0069067907 0.03553638
000040 18 a4 cf bb 61 55 59 bd b3 71 8d 3c 06 02 6a be
       -0.0063367 -0.05305994 0.01726613 -0.22852334
000050 a2 81 82 3e 86 32 b5 bd a7 aa 00 bd 11 5c 89 3e
       0.25489527 -0.08847527 -0.031412747 0.26828054
000060 be 67 dd bd c7 c3 9d 3c 36 5d c6 bc d2 af 82 3e
       -0.10810803 0.019258393 -0.024214368 0.25524765
000070 37 20 2c be 1c c9 7e be 94 1e 19 3e a0 09 5b bd
       -0.16809164 -0.24881405 0.14953071 -0.053475976
000080 62 f5 d1 3d d1 c4 fe bd ae 7a 01 3e c5 ef 3f 3b
       0.10251881 -0.124398835 0.12644455 0.00292872
000090 35 40 3c bd 45 1c c4 3d a2 55 b9 3d 43 8f de bd
       -0.04595967 0.095757045 0.09049536 -0.10867169
0000a0 b5 68 34 bd 84 db ca 3d dc 7e ac 3d 5e 3f e0 3d
       -0.04404517 0.099051505 0.08422634 0.10949586
0000b0 76 2f ac bc d5 9e 05 3e cc fb aa be 03 8d c5 3e
       -0.021018725 0.13048871 -0.3339523 0.38584146
0000c0 d7 23 2f bd f8 ed b5 bd f5 6a 3d 3e 97 c7 c2 3c
       -0.04275879 -0.088832796 0.18497832 0.023776812
0000d0 a9 98 de 3c 95 93 97 3d c5 b2 20 be 46 88 20 be
       0.027172403 0.07401196 -0.15693195 -0.15676984
0000e0 b3 c1 11 3e ed 0c 96 3d dd bc 5a be fc c9 8c 3c
       0.14234047 0.07326684 -0.21361108 0.017186157
0000f0 b3 00 90 be 59 12 da bc dc 3c 8b 3e 66 6c 90 bd
       -0.28125533 -0.026620077 0.2719487 -0.07051925
000100 c2 1c d1 bc 5e 54 57 3b fd 25 c3 bc c2 21 82 bc
       -0.025526408 0.0032856683 -0.023821825 -0.015885238
000110 a6 ec df bc 22 15 4f 3e 55 a3 9e 3c 28 36 50 3d
       -0.027334522 0.20222905 0.019364992 0.050832897
000120 e7 db ac bb 37 c6 51 bd a1 dd 96 bc ab 32 87 3c
       -0.005275238 -0.051214423 -0.018416228 0.016503653
000130 ab 4e a1 bb b2 ed 97 bb 56 82 df 3d 8a 27 c0 bd
       -0.004922708 -0.00463649 0.109135315 -0.093825415
000140 d8 4a 37 3b e5 b6 96 be 09 3d f7 bd 29 06 4c bd
       0.0027968194 -0.29436412 -0.120721884 -0.049810562
000150 57 2d 8a 3c 6b a0 48 bd 1c 9a 99 3d 0c 1c 48 3d
       0.016867323 -0.04898111 0.07500097 0.048854873
000160 8b be 88 bd f1 25 6f ba c6 9f 84 3d 4d 07 1b bc
       -0.06676968 -0.000912278 0.06475787 -0.00946219
000170 6f 60 cf 3d a5 3c 03 3e ec f5 2d 3d 47 68 5f 3d
       0.10125815 0.12816103 0.042470858 0.054542806
000180 6f c7 71 bc 0d 02 04 3e 94 4c e4 bd 21 44 d3 bb
       -0.014757021 0.12891407 -0.111474186 -0.0064473306
000190 af 0d 3d 3d 68 03 4b bd e2 69 5f bd c7 02 c1 bc
       0.046155628 -0.049563795 -0.054544337 -0.023560895
0001a0 22 a5 0e 3d de 3c 21 be 2b f0 8e bb 94 26 a6 bd
       0.03482545 -0.15745875 -0.0043621263 -0.08112827
0001b0 87 1e 07 be 96 03 15 3e d7 51 e0 3d 9a e7 85 bd
       -0.13195239 0.14552149 0.1095311 -0.06538315
0001c0 eb 5f dd 3c 01 e8 8d bd 42 fe f9 3d bd 38 15 3e
       0.027023276 -0.06929017 0.12206699 0.14572425
0001d0 2c 31 86 3d 3a 95 e3 3b a8 36 ad 3d db 07 58 bc
       0.065523475 0.0069452794 0.084576905 -0.013185467
0001e0 eb a0 70 3e a6 40 e2 3d d2 8f 41 bd 60 8f 5a 3e
       0.23498885 0.11047487 -0.0472563 0.21343756
0001f0 b5 84 25 bd d8 ef 92 3c 2e 02 0a be 0a a3 94 bd
       -0.040409762 0.017936632 -0.13477394 -0.0725766
000200 9a 0c 16 3e c0 d3 b3 3d 26 7e 3f bf 81 08 71 bd
       0.14653245 0.087806225 -0.7480186 -0.058846
000210 7e 56 7d 3d 1b 6a 2c bd b2 a8 d7 bd 53 94 93 bd
       0.061850064 -0.042093378 -0.10530223 -0.07206025
000220 85 16 c7 bd 2d a3 94 3e 52 89 3e bc 67 5c d9 3e
       -0.09721092 0.29030743 -0.011629419 0.4245331
000230 a9 54 ff bc e8 77 cc 3d 06 af 91 be 22 69 cc 3d
       -0.031168299 0.09983808 -0.28453845 0.0998099
000240 f7 1d f4 bd cc 1c be 3d 59 e8 84 bc 17 c0 a0 bd
       -0.11919778 0.09282836 -0.016224073 -0.07849138
000250 27 2e 62 3d 51 43 e4 bc f1 11 59 3d 55 74 01 3e
       0.055219796 -0.02786413 0.052995626 0.12642033
000260 65 8f 93 be f1 b3 89 be 91 34 86 be 57 ae f6 3e
       -0.2882034 -0.26895097 -0.2621198 0.48179886
000270 1b ac 84 bd 4b 81 c8 3d fb d0 1f 3f ce 3a c0 3c
       -0.06478139 0.09790286 0.62428254 0.02346554
000280 70 ae dc bd 6b c6 44 bd 62 84 8c 3c 64 7b bd 3c
       -0.10775459 -0.04804079 0.017152969 0.023130126
000290 d9 ba c7 3d d4 4e 7e 39 03 d4 e6 3e e7 19 ff 3c
       0.09752435 0.00024252693 0.45083627 0.03114028
0002a0 6e a4 79 be ff 71 20 be 84 01 8c 39 15 d4 31 be
       -0.24379131 -0.15668486 0.0002670401 -0.17366059
0002b0 e7 4d cd 3c 09 4f 2f 3e 34 61 cc be 9a f0 13 3d
       0.02506156 0.17119993 -0.3991791 0.036118127
0002c0 f7 ab aa 3d ca 3c 56 3d 81 53 12 be ec f8 22 be
       0.08333581 0.052304067 -0.14289667 -0.15915269
0002d0 15 42 4a 3e 95 c5 8d bd e2 75 cd 3c 58 ff 4e be
       0.19751771 -0.069224514 0.025080625 -0.20214593
0002e0 e3 af 69 3e 76 e3 12 bd b6 b8 40 3e fb de 28 3c
       0.22821002 -0.035861455 0.18820462 0.010307069
0002f0 d7 74 b4 bb f2 61 8a bd 95 38 b0 3e 17 3f 05 bd
       -0.0055070925 -0.06756963 0.3441817 -0.03253087
000300 a6 3e bd c0 c2 f2 c8 bf dd fd c6 3b 5f 20 44 41
       -5.9138975 -1.5699084 0.0060727433 12.257903
000310 9e 92 58 40 7d ad bc 3e 3b 47 e8 3d 96 83 f9 40
       3.3839488 0.3685111 0.11341711 7.7973127
000320 ee ca 9d c0 c6 2b c5 c0 36 46 26 40 6f 86 54 c0
       -4.9310217 -6.1615934 2.5980353 -3.3207052
000330 f2 ef 5a c0 ea 54 ec be eb b4 b8 be 6d 9b 11 c0
       -3.420895 -0.46158534 -0.3607553 -2.2751114
000340 42 06 ee c0 a4 43 5f bf 3a 91 04 bf bd 34 23 c0
       -7.438264 -0.87212586 -0.517841 -2.550094
000350 24 24 19 c0 ca 86 96 3f 6f 52 cb c0 2f e5 a1 be
       -2.3928308 1.1759884 -6.3538127 -0.31620166
000360 85 db ca be ac df b5 3f a3 d9 c9 bf 8f f9 7d bd
       -0.39620605 1.4208884 -1.5769542 -0.062005576
000370 83 8b b3 bf b2 98 eb bd 08 7d 48 40 af 07 99 c0
       -1.4026951 -0.11503734 3.1326313 -4.782188
000380 42 9f 39 3e e2 03 86 be 77 a9 f0 bc d2 ca 81 bd
       0.18127158 -0.26174837 -0.029377682 -0.06337513
000390 b4 a2 98 3c a3 c9 b0 bd fb 45 ce bd 2f 1d a1 3d
       0.01863227 -0.08632209 -0.100719415 0.078668945
0003a0 7d cc 0d 3e 91 03 d5 3d 73 31 85 3e 1f 65 8e bc
       0.13847537 0.10401071 0.2601429 -0.017382203
0003b0 f1 6c 11 3e a3 05 da 3d 2b 0c 49 bd 5a de e7 3d
       0.14201714 0.10645606 -0.04908387 0.11321707
0003c0 e3 5e 73 bd b8 c5 ee 3c e0 88 02 be cd 01 d0 3c
       -0.059416663 0.029147014 -0.12747526 0.025391484
0003d0 ae e3 92 bc 02 1c c3 3d a8 45 28 3d e1 55 81 3c
       -0.017930832 0.095268264 0.041082054 0.01578802
0003e0 f8 31 aa 3c f0 5b fc 3a 6a d2 b7 3c 4e 58 24 be
       0.02077578 0.0019253474 0.0224392 -0.1604931
0003f0 f7 35 42 3e f6 d4 86 3e 81 7e 7b be b8 c0 31 be
       0.18965898 0.2633435 -0.24559976 -0.17358673

bias f4 [14]
000000 35 36 b6 3d 20 43 13 3f d5 fa 8b be 55 e9 7c bd
       0.08897058 0.575243 -0.27339807 -0.06174596
000010 4e 16 0e 3f 71 08 df bc 73 02 d7 c0 d3 a6 a0 3e
       0.55502784 -0.027225705 -6.719049 0.31377277
000020 e3 bb 80 be ab 87 c2 3d 43 bb 44 be 77 17 8d 3e
       -0.25143346 0.09498533 -0.1921206 0.27556965
000030 c2 ce 4f 3e ea 57 36 c0
       0.20293716 -2.8491158
